trained_models/base_mlp_model_49_64_64_7.pth (torch, 34108 bytes, 6 tensors)

fc1.weight f4 [64, 49]
0	0x3f8e2570	1.1105175
1	0xbdb218c4	-0.0869613
2	0xbda02846	-0.078201815
3	0xbe86f7b6	-0.26360863
4	0xbea7c41a	-0.327668
5	0xbe2ddfd6	-0.16979918
6	0xbf077451	-0.5291186
7	0x3eebdf09	0.460686
8	0x3f0a12ad	0.53934747
9	0xbd2908a1	-0.041267995
10	0xbc9813ac	-0.018564068
11	0xbd971de5	-0.07378749
12	0x3f41860d	0.7559517
13	0xbeeed94f	-0.46650168
14	0xbdcfb58b	-0.101420484
15	0xbe0cd71e	-0.13753936
16	0xbec2b8cb	-0.3803161
17	0xbe733230	-0.23749614
18	0xbe89df25	-0.26928058
19	0xbdfe2df5	-0.12411109
20	0xbe0c9e8f	-0.1373236
21	0xbf373707	-0.7156834
22	0xbe3362e8	-0.17518198
23	0xbe69a883	-0.22818188
24	0xbe5e3e2d	-0.21703406
25	0xbd4e7244	-0.05040194
26	0x3e45ff1a	0.19335595
27	0xbe99452f	-0.29935595
28	0xbe65fbae	-0.2245929
29	0xbe61bd02	-0.22044757
30	0x3f29d54e	0.663411
31	0xbcac91ad	-0.021065557
32	0xbe40c552	-0.18825272
33	0x3e8a9e12	0.27073723
34	0xbd77e5f9	-0.060522053
35	0x3e19514a	0.14972416
36	0x3d4be612	0.04977996
37	0x3d588038	0.052856654
38	0x3fbfcaab	1.4983724
39	0x3e90a317	0.28249428
40	0x3edb1117	0.42786476
41	0x3d4ad01f	0.049514886
42	0xbe6a09ce	-0.22855303
43	0xbd9b3fcb	-0.07580527
44	0xbe8df658	-0.27727008
45	0xbe94d629	-0.2906964
46	0xbe223e14	-0.15843993
47	0xbd90b38e	-0.07065497
48	0x3d51b251	0.051195446
49	0xbed4982a	-0.41522342
50	0xbda4fb9c	-0.08055803
51	0x3ca4c397	0.020112796
52	0x3de01f7b	0.109435044
53	0x3d897e63	0.067135595
54	0xbe5e0aef	-0.21683858
55	0x3ce23a38	0.027615651
56	0x3dc5f091	0.09665025
57	0xbd7aa660	-0.061193824
58	0xbf3744fc	-0.71589637
59	0xbe46f05c	-0.19427627
60	0xbe60196d	-0.21884699
61	0xbe8125cf	-0.25224158
62	0x3fbab710	1.4587116
63	0xbdecaf65	-0.11556891
64	0xbe0982b6	-0.13428769
65	0xbe6c4c65	-0.23076017
66	0xbe5cd9fc	-0.2156753
67	0x3d89df86	0.06732087
68	0xbdea2dd7	-0.114345245
69	0xbe8f5fc3	-0.28002748
70	0x3e2772d6	0.163524
71	0x3e14e137	0.14539038
72	0xbd30cabe	-0.0431621
73	0x3dab6872	0.08369531
74	0x3ce138a4	0.027492829
75	0xbd3cdacf	-0.04610711
76	0x3e2d5382	0.16926387
77	0x3d2c9eb9	0.042143557
78	0xbd5e473c	-0.054267153
79	0xbf091051	-0.5354052
80	0x3de976d6	0.11399619
81	0x3de20b13	0.110372685
82	0xbd022349	-0.03177193
83	0xbcf4b8e9	-0.029873328
84	0x3e4a7a84	0.19773299
85	0xbd7604c8	-0.060063154
86	0xbcf5207b	-0.029922714
87	0xbeaf4220	-0.34230137
88	0x3e80bef2	0.2514568
89	0x3e364c2d	0.17802496
90	0xbd2166ba	-0.03940461
91	0x3da30ccf	0.079614274
92	0x3d3a7da2	0.04552997
93	0xbd9334d1	-0.07187808
94	0xbe1af7fc	-0.15133661
95	0x3ca2b808	0.019863144
96	0xbe458db3	-0.19292335
97	0xbe0c532a	-0.137036
98	0x403976dd	2.8978798
99	0x3c5e8e62	0.013583751
100	0xbe3340c8	-0.17505181
101	0xbcf5f3ec	-0.030023538
102	0xbd727610	-0.059194624
103	0xbea45161	-0.32093337
104	0xbec6440c	-0.3872379
105	0x3ebf4337	0.37355968
106	0xbc939c81	-0.018018963
107	0x3dc57add	0.09642575
108	0xbe45ebab	-0.19328181
109	0xbef56370	-0.47927427
110	0xbd541371	-0.051776353
111	0xbdd52c04	-0.10408786
112	0x3dbd1d20	0.09234071
113	0x3d6e5105	0.058182735
114	0xbf065939	-0.5247989
115	0x3e5ee311	0.21766306
116	0xbd4453a2	-0.04793132
117	0x3e1c949c	0.15291065
118	0x3f5d9ba4	0.86565614
119	0x3d8dae20	0.06917977
120	0xbd43e46d	-0.047825266
121	0xbe1eb000	-0.15496826
122	0x3de484ba	0.11158128
123	0xbd8ee164	-0.069765836
124	0xbd9c75ac	-0.07639632
125	0x3dece43e	0.11566971
126	0xbe2ba029	-0.16760315
127	0xbdd13ab3	-0.10216274
128	0xbe98001c	-0.29687583
129	0xbd9b60de	-0.07586835
130	0x3ed6491f	0.41852662
131	0x3e3a0a72	0.18168047
132	0xbf091573	-0.53548354
133	0xbea8a98c	-0.32941854
134	0x3eee4da4	0.4654361
135	0x3e5e91d0	0.2173531
136	0xbfa88808	-1.3166513
137	0xbf0acc03	-0.5421755
138	0x3ec679ba	0.38764745
139	0x3ecd3964	0.40082848
140	0x3de77d73	0.113032244
141	0xb98ce0c1	-0.00026870336
142	0xbd822159	-0.06354017
143	0x3efb2bba	0.49056798
144	0xbdab00d7	-0.083497696
145	0xbec25571	-0.37955812
146	0x3c526325	0.012841021
147	0x3e61696c	0.22012872
148	0x3d648b1f	0.05579674
149	0xbcb4e8f3	-0.022083735
150	0xbd6f95ea	-0.05849258
151	0x3d886445	0.0665975
152	0x3c818c85	0.015814075
153	0x3c69fa92	0.014280932
154	0x3e8b96b8	0.27263427
155	0x3ead4f4b	0.33849558
156	0x3ceffa0d	0.029294038
157	0x3e18a008	0.14904797
158	0xbc6186cf	-0.013765051
159	0x3e967fe6	0.29394454
160	0xbd36fcd7	-0.04467472
161	0xbdaa9ce1	-0.083307035
162	0xbdfe86d4	-0.1242806
163	0xbe2223a3	-0.15833907
164	0xbe3d04b5	-0.18458827
165	0xbd63dee5	-0.05563249
166	0xbec56c31	-0.38559106
167	0x3cb68dfa	0.022284497
168	0x3d0a1bb0	0.03371781
169	0xbde3bd5a	-0.111201
170	0x3d55f5ad	0.052236248
171	0x3e0f0f47	0.13970672
172	0x3d973fd1	0.07385219
173	0xbe45348c	-0.19258326
174	0xbe82abe6	-0.25521773
175	0xbf0934d4	-0.53596234
176	0xbe9b25fa	-0.3030241
177	0xbe4725e5	-0.1944805
178	0xbd8f9d95	-0.07012478
179	0x3dda56c4	0.106610805
180	0x3d764780	0.06012678
181	0xbdd66c62	-0.10469891
182	0x3e73e1bc	0.2381658
183	0x3c77fd58	0.015136085
184	0x3dc3676f	0.09541213
185	0xbf46f9bf	-0.7772483
186	0xbedc017c	-0.42969882
187	0xbf0d77c9	-0.552609
188	0x3f295c65	0.6615661
189	0xbdf14395	-0.117804684
190	0xbc2293aa	-0.009922901
191	0xbe35d8f1	-0.17758538
192	0xbd57de9c	-0.05270253
193	0x3b4721a2	0.0030385037
194	0xbdf8e817	-0.121536426
195	0xbbf75498	-0.007547926
196	0x40256006	2.5839858
197	0x3ece22a1	0.40260795
198	0xbcf76315	-0.030198613
199	0xbd531d41	-0.05154157
200	0xbe0c31f5	-0.13690932
201	0x3a90be02	0.0011042955
202	0xbe849722	-0.25896555
203	0x3ece5727	0.40300867
204	0x3c598e31	0.01327853
205	0xbef133e6	-0.47109908
206	0xbe4e3def	-0.20140813
207	0xbee89e93	-0.45433483
208	0x3f03caa3	0.51481074
209	0x3fa1ce55	1.2641093
210	0xbe7e8e92	-0.24859074
211	0xbf2a0a8c	-0.66422343
212	0xbf522e21	-0.8210164
213	0xbe726456	-0.23671088
214	0xbedf9da9	-0.43674973
215	0xbf24f44e	-0.6443528
216	0x3ed86642	0.42265517
217	0xbe014959	-0.12625636
218	0xbd000d17	-0.031262483
219	0xbf01d8d2	-0.50721467
220	0x3bfb7eac	0.0076750126
221	0xbcfbf8b8	-0.030758247
222	0xbe98ffe2	-0.29882723
223	0x3d4f6309	0.050631557
224	0xbf2bddc0	-0.6713524
225	0xbe838457	-0.25686905
226	0xbdb0f58e	-0.08640586
227	0x3e1a8dfd	0.15093227
228	0x3f225739	0.6341434
229	0xbe743c1a	-0.23851052
230	0xbe7701dd	-0.24121805
231	0x3c47ce00	0.01219511
232	0x3e8699d6	0.26289243
233	0x3e9d322a	0.30702335
234	0xbf103c48	-0.5634198
235	0x3df1c031	0.11804236
236	0x3f06e1c8	0.52688265
237	0xbed7103a	-0.42004567
238	0x3e99a2cf	0.30007026
239	0x3eb769f2	0.35823017
240	0x3e2e3e1f	0.17015885
241	0x3f69a2f6	0.91264284
242	0xbdfc3ae7	-0.12315922
243	0xbe910714	-0.28325713
244	0x3edd5fe5	0.43237224
245	0x398fd6e0	0.0002743518
246	0x3c160d95	0.009158512
247	0x3df08859	0.11744756
248	0xbde92046	-0.11383109
249	0x3db5b036	0.088715
250	0xbd00d36e	-0.031451635
251	0x3d3677a7	0.044547703
252	0x3dc14ead	0.09438834
253	0xbd28d894	-0.04122217
254	0xbd688e76	-0.056776486
255	0xbd5f1ec3	-0.054472696

fc1.bias f4 [64]
0	0xbf1c0bbc	-0.60955405
1	0x3e2801b5	0.16406901
2	0xbf0e4754	-0.5557759
3	0x3c8ed7ed	0.017436946
4	0xbebcf0de	-0.36902517
5	0xbda99e0a	-0.08282097
6	0xbe03ded7	-0.12877975
7	0x3ee17b90	0.44039583
8	0xbdaa2272	-0.08307351
9	0xbea6e589	-0.32596996
10	0xbdfdc2b5	-0.12390653
11	0x3cdbfe46	0.026854645
12	0x3e81dd68	0.25364232
13	0xbc6a1057	-0.014286122
14	0x3c113a27	0.008863962
15	0xbde611fe	-0.112339005
16	0xbe6f5966	-0.23373947
17	0x3e12bb71	0.14329316
18	0x3ebc760d	0.36808816
19	0x3dc73839	0.097275205
20	0xbdb8aba3	-0.09017112
21	0x3e66e5be	0.22548577
22	0x3e9b1975	0.3029286
23	0xbe2dca1c	-0.1697163
24	0xbdf2908d	-0.11843977
25	0x3f4d801f	0.8027362
26	0xbc51a515	-0.012795706
27	0xbe3a08fd	-0.18167491
28	0xbec6e854	-0.38849127
29	0x3ed15a07	0.40888998
30	0x3e359778	0.17733562
31	0xbf130dac	-0.57442737
32	0xbe675dc3	-0.22594361
33	0x3d7ffffe	0.062499993
34	0xbda169aa	-0.07881482
35	0xbf8ec32e	-1.1153314
36	0xbb92cb2a	-0.0044797854
37	0x3d90a22b	0.07062181
38	0xbf06a6ef	-0.5259847
39	0xbdb4cf87	-0.08828645
40	0xbe9aa618	-0.30204844
41	0xbe5929da	-0.21207371
42	0xbe390cf6	-0.1807135
43	0x3e0f21ac	0.13977689
44	0xbdebf18a	-0.11520679
45	0xbd8bf299	-0.06833381
46	0x3d978b04	0.07399562
47	0xbe08d595	-0.13362725
48	0x3d163fc4	0.036681905
49	0xbdea47a1	-0.114394434
50	0xbe17b0ae	-0.14813492
51	0xbf13454b	-0.5752761
52	0x3e8fa29b	0.28053746
53	0xbe4c0a24	-0.19925743
54	0xbebafd64	-0.36521447
55	0xbec4db31	-0.3844848
56	0x3d3cd717	0.046103563
57	0xbe3cab6e	-0.1842477
58	0xbe853777	-0.2601888
59	0x3e4114a1	0.18855526
60	0xbed98d40	-0.42490578
61	0xbe64486c	-0.22293252
62	0x3ee9ce3e	0.45665163
63	0xbdae33c8	-0.0850597

fc2.weight f4 [64, 64]
0	0x3c113969	0.008863785
1	0xbe926eef	-0.2860026
2	0x3e16993e	0.14706895
3	0x3e638406	0.22218332
4	0x3e1bba9b	0.15207903
5	0xbe0124a8	-0.1261164
6	0x3d8ea4df	0.069650404
7	0xbe5d86d6	-0.21633467
8	0x3da53aa1	0.08067823
9	0xbdf4b10f	-0.11947834
10	0xbdabd526	-0.08390264
11	0x3d735c12	0.059413977
12	0xbdfee472	-0.12445916
13	0x3e538b0d	0.20658512
14	0x3de85b27	0.11345511
15	0x3d648d53	0.05579884
16	0x3d6aaa07	0.057291057
17	0x3cb9f2a8	0.022698715
18	0xbd852c00	-0.06502533
19	0x3e556abc	0.20841497
20	0x3e5b0686	0.21389207
21	0xbe09844f	-0.13429378
22	0x3e01c751	0.1267369
23	0xbde756fa	-0.11295886
24	0x3d382953	0.044961285
25	0xbe1e6ab0	-0.15470386
26	0xbeb15adb	-0.3463963
27	0x3ea1b307	0.315819
28	0xbd481967	-0.04885235
29	0xbe1f4d2b	-0.15556781
30	0xbd3f1bad	-0.046657253
31	0x3e3121e6	0.17298087
32	0xbe81c06a	-0.25342113
33	0xbd94be62	-0.07262875
34	0xbca1a27c	-0.019730799
35	0xbecd6f40	-0.4012394
36	0xbb7c9d8b	-0.0038546051
37	0x3e0622a1	0.13099147
38	0x3dc92da6	0.0982316
39	0xbd26b630	-0.04070109
40	0x3ea6eb93	0.32601604
41	0xbe2bdef9	-0.16784276
42	0xbda2ca20	-0.079487085
43	0x3e2d7902	0.16940692
44	0x3e70ba2a	0.23508516
45	0xbde3edd6	-0.11129348
46	0xbeb77a9a	-0.35835725
47	0x3e04d6a0	0.12972498
48	0xbd518e73	-0.05116124
49	0x3d14b913	0.036309313
50	0x3e8bcb79	0.27303675
51	0xbd95fabb	-0.07323214
52	0x3bb0e0e1	0.0053979014
53	0xbc85c355	-0.016328493
54	0x3dadc614	0.08485046
55	0xbd335fb7	-0.043792453
56	0xbcc18042	-0.023620728
57	0x3e918f58	0.28429675
58	0x3e47ccdf	0.19511746
59	0x3d84c247	0.06482368
60	0xbdb586f0	-0.08863628
61	0xbe36f610	-0.17867303
62	0xbdba1920	-0.090868235
63	0x3df5e416	0.120063946
64	0x3e17e975	0.1483515
65	0xbd10d5a8	-0.03536001
66	0x3e78fca4	0.24315125
67	0x3e6a73f9	0.22895803
68	0x3e68098a	0.22659889
69	0xbd25d3c2	-0.04048515
70	0x3e0711c3	0.1319037
71	0xbec12687	-0.37724707
72	0xbd910330	-0.07080686
73	0x3e26417d	0.1623592
74	0xbdeda028	-0.11602813
75	0x3e10ef11	0.14153697
76	0xbcc75b09	-0.024335401
77	0xbd81970b	-0.06327637
78	0x3bdc5306	0.0067237644
79	0x3e83370b	0.25627932
80	0xbd6e6d62	-0.058209784
81	0x3e5d8e2e	0.21636268
82	0x3e8c2cb1	0.27377847
83	0x3ea2e110	0.31812334
84	0x3e0bf273	0.13666706
85	0x3e8cca04	0.27497876
86	0x3e8dd62a	0.27702457
87	0xbdbb0265	-0.09131316
88	0xbd466e1f	-0.048444863
89	0xbe9efc5c	-0.3105191
90	0xbe10c36e	-0.1413705
91	0x3d977733	0.07395782
92	0x3ea74bee	0.32675117
93	0xbda017b5	-0.07817022
94	0xbefa3a4d	-0.48872605
95	0x3ec6076b	0.38677534
96	0x3d851cdd	0.06499646
97	0xbdf9b9d7	-0.12193649
98	0xbd97af06	-0.0740643
99	0xbe63bb2e	-0.22239372
100	0xbc9ef245	-0.019402632
101	0x3dbc8cd3	0.092065476
102	0x3e3c196f	0.18369077
103	0xbd94e6f4	-0.07270613
104	0x3e18ef87	0.14935122
105	0xbe9eec60	-0.31039715
106	0x3e28bbaf	0.16477846
107	0xbe961b2d	-0.29317608
108	0x3e3a167d	0.18172641
109	0xbd0b8eb4	-0.03407164
110	0xbea95689	-0.33073834
111	0xbe2f7e43	-0.17138009
112	0x3c84f3ba	0.0162295
113	0x3e25538f	0.16145156
114	0x3a91ec53	0.0011133052
115	0xbece19cb	-0.40254053
116	0x3e16a2fa	0.14710608
117	0xbac837a1	-0.0015275368
118	0x3f0a1664	0.53940415
119	0x3e6be7d4	0.23037654
120	0x3db6b2da	0.08920832
121	0xbd55627e	-0.052095883
122	0x3dec92da	0.11551447
123	0x3d5b1985	0.053491134
124	0x3db7e531	0.08979262
125	0xbdfd88b1	-0.123795874
126	0x3cf95159	0.030434297
127	0x3e698e3f	0.22808169
128	0x3d9dfd70	0.07714355
129	0xbe4443ab	-0.19166438
130	0xbdd6eaa9	-0.104939766
131	0xbe856007	-0.26049826
132	0xbe6c1ede	-0.2305865
133	0xbd5db105	-0.054123897
134	0xbdad6910	-0.08467305
135	0x3e82190a	0.25409728
136	0x3d3a95a4	0.045552865
137	0xbee3ad08	-0.4446795
138	0xbd07a8f8	-0.033120126
139	0xbda9e394	-0.0829536
140	0x3e27c821	0.16384937
141	0x3d6eb889	0.058281455
142	0xbe5e7f9d	-0.21728368
143	0x3e227c90	0.1586783
144	0x3df9c342	0.121954456
145	0x3d55fd33	0.052243423
146	0xbf0b3988	-0.5438466
147	0xbe4e7da0	-0.2016511
148	0xbe1f01ad	-0.15527983
149	0xbdade0e4	-0.0849016
150	0x3e2df65d	0.16988511
151	0xbbb92ba6	-0.0056509553
152	0xbaf55624	-0.0018717689
153	0x3ef9e58f	0.48807952
154	0x3e37dfdf	0.17956494
155	0xbf005807	-0.5013432
156	0xbe3e2f91	-0.18572833
157	0x3ea9c51a	0.3315819
158	0x3e960676	0.29301804
159	0xbd37dad2	-0.044886418
160	0x3ec2ed82	0.3807183
161	0x3e279f59	0.1636938
162	0x3def3536	0.11680071
163	0x3eaade14	0.33372557
164	0x3d456cb8	0.048199385
165	0xbd95615a	-0.07293959
166	0x3e60bb16	0.21946368
167	0xbe12261a	-0.14272347
168	0xbe227a14	-0.15866882
169	0x3e5a1e30	0.21300578
170	0xbcbb772f	-0.02288398
171	0x3dd1a6ff	0.1023693
172	0xbeac7538	-0.3368318
173	0xbd0041d6	-0.031312786
174	0x3e17cfd8	0.1482538
175	0xbe23cdcb	-0.15996473
176	0x3d88b7bd	0.0667567
177	0xbedce289	-0.43141583
178	0x3df4a625	0.11945752
179	0xbe787f1b	-0.24267237
180	0xbe594861	-0.21219017
181	0xbc5f4019	-0.013626122
182	0xbebb8f69	-0.3663285
183	0xbe946da2	-0.28989893
184	0xbebfc72f	-0.37456653
185	0xbeb219eb	-0.347854
186	0x3ddcc5b5	0.10779897
187	0x3d92c8bc	0.07167193
188	0x3e0e6f56	0.13909659
189	0x3dd9a16f	0.10626494
190	0x3e08f5a1	0.1337495
191	0xbe6882f4	-0.22706205
192	0xbd0d9633	-0.03456707
193	0xbd7da861	-0.061928157
194	0xbe80a9a5	-0.25129429
195	0x3cc381a4	0.023865528
196	0xbd745fbe	-0.05966162
197	0x3d27f9ea	0.04100982
198	0xbd925ee4	-0.07147005
199	0x3e0ee9ca	0.13956371
200	0xbdbbb2eb	-0.09164985
201	0xbda05e41	-0.078304775
202	0xbdb0d968	-0.08635217
203	0xbca33fb0	-0.01992783
204	0x3ea70f25	0.32628742
205	0x3e65376b	0.22384422
206	0x3bf9cca5	0.0076232725
207	0xbcaeef6c	-0.0213544
208	0x3dd12b08	0.10213286
209	0xbe320819	-0.17385902
210	0x3e0ad1cc	0.13556594
211	0x3d94fdbe	0.0727496
212	0x3c503d69	0.012709954
213	0x3d76bda1	0.060239438
214	0xbe53e419	-0.20692481
215	0x3d068d4a	0.032849588
216	0x3d890251	0.06689895
217	0xbd7b352c	-0.061330006
218	0xbdc45b77	-0.09587758
219	0xbd2c1bd9	-0.042018745
220	0xbe3ef247	-0.18647109
221	0xbc184a16	-0.009295007
222	0xbe2503df	-0.16114758
223	0xbe0fc456	-0.1403974
224	0xbdab7151	-0.08371223
225	0xbe326daa	-0.17424646
226	0xbcb7eb88	-0.022451177
227	0xbde93dc0	-0.11388731
228	0x3e0bc554	0.13649493
229	0x3d8d9387	0.06912904
230	0xbc685b7d	-0.014181969
231	0xbc13e482	-0.0090266485
232	0x3b90bd63	0.004417108
233	0xbb63ee75	-0.0034779583
234	0xbd350cdf	-0.044201728
235	0x3e3fcb95	0.18730004
236	0xbbf3f433	-0.0074448823
237	0x3d87aa62	0.06624295
238	0xbe2fff25	-0.17187174
239	0x3e09c035	0.13452227
240	0xbdd384fd	-0.103281
241	0x3d8518de	0.06498884
242	0x3de966c7	0.11396556
243	0xbc0421bb	-0.008064683
244	0x3c256932	0.010095881
245	0x3e298439	0.16554345
246	0xbdaaa5f8	-0.08332437
247	0x3d83f635	0.06443445
248	0x3caa045c	0.020754032
249	0x3e96f427	0.29483148
250	0x3cf87570	0.030329436
251	0x3d5a7117	0.053330507
252	0xbd956963	-0.072954915
253	0xbdbc8293	-0.092045926
254	0x3e339317	0.17536579
255	0x3c2b410e	0.010452522

fc2.bias f4 [64]
0	0x3eb0cdb8	0.3453195
1	0x3e8c4364	0.27395165
2	0x3de207fe	0.11036681
3	0xbcc79ee9	-0.024367766
4	0x3da23f99	0.079222865
5	0x3e97c5b7	0.29643032
6	0x3d0e2b41	0.03470922
7	0xbddc28f0	-0.10749996
8	0xbc385c1b	-0.011252428
9	0x3d88873b	0.06666418
10	0x3e52de85	0.20592697
11	0xbe172343	-0.14759545
12	0x3d1c3622	0.038137563
13	0xbde32b43	-0.11092236
14	0x3e019aca	0.12656704
15	0x3e2deff7	0.1698607
16	0xbd98a055	-0.07452456
17	0x3cd1f197	0.025627894
18	0x3e35e6b7	0.17763792
19	0x3e5452ca	0.20734707
20	0x3d5dd23b	0.05415557
21	0x3e5fd2b4	0.2185772
22	0xbd1d8deb	-0.03846542
23	0x3e58ee2c	0.21184605
24	0x3edb8bad	0.42880002
25	0xbd88d16f	-0.06680571
26	0x3c0af2cb	0.008480738
27	0x3d89ca3b	0.067280255
28	0x3c09af73	0.008403647
29	0xbd20b187	-0.039231803
30	0xbd052cc1	-0.032513384
31	0xbde9b458	-0.11411351
32	0x3e9b2eeb	0.30309233
33	0x3e420cda	0.18950215
34	0x3e328024	0.17431694
35	0xbd72a7a9	-0.059241924
36	0x3a428d3b	0.00074215577
37	0x3deafde6	0.114742085
38	0x3e8772f1	0.2645488
39	0x3de371d7	0.111056976
40	0xbdeb8c08	-0.11501318
41	0x3dba108b	0.090851866
42	0x3effa95e	0.49933904
43	0xbddc2af6	-0.10750382
44	0x3de6c35c	0.112677306
45	0x3ea8167e	0.3282966
46	0xbb014c3a	-0.0019729272
47	0xbddfcaee	-0.10927378
48	0x3dd9a3d2	0.10626949
49	0x3e12e8fb	0.14346687
50	0x3d7a969c	0.06117879
51	0x3e521a0b	0.20517747
52	0xbd107d0e	-0.03527551
53	0x3e518a8f	0.20463012
54	0x3dee603b	0.11639448
55	0x3e75e988	0.24014866
56	0xbde90a5b	-0.11378928
57	0x3d72477f	0.059150215
58	0xbdc65624	-0.09684399
59	0x3ed6fb4b	0.41988596
60	0x3dcd4e64	0.100247175
61	0x3cfce29d	0.030869776
62	0x3dc4043a	0.09571119
63	0xbd139f55	-0.036040623

fc3.weight f4 [7, 64]
0	0x3cd935a7	0.026514841
1	0x3f1199a7	0.5687508
2	0xbf407278	-0.75174665
3	0x3e604c64	0.2190414
4	0x3e3e8246	0.18604383
5	0x3e4c4238	0.19947135
6	0x3f18b1ac	0.59646106
7	0x3cdd60a2	0.027023617
8	0x3c6ff59d	0.014645961
9	0xbe891f41	-0.26781657
10	0x3df5607b	0.11981293
11	0x3f786463	0.9702818
12	0x3e29100b	0.16510026
13	0xbfa3e753	-1.280497
14	0x3c74fd5d	0.014952985
15	0x3ec166c6	0.37773722
16	0xbead50dc	-0.33850753
17	0x3e163596	0.14668879
18	0x3f1240f9	0.5713039
19	0x3df79d69	0.120905705
20	0x3ea085ad	0.31351987
21	0x3f07ef80	0.53099823
22	0x3ed5536c	0.41665208
23	0x3e5a9d3d	0.21349044
24	0x3f4d0541	0.8008614
25	0x3c290e1b	0.010318304
26	0xbb8aea33	-0.0042393445
27	0xbf48e198	-0.7846923
28	0x3e6b4869	0.22976841
29	0xbf86570d	-1.0495316
30	0x3ea1f7d2	0.31634384
31	0x3e0063a1	0.12538005
32	0x3f6fd90a	0.9369055
33	0x3f76b1bd	0.9636496
34	0x3e8d6494	0.27615798
35	0xbf14f477	-0.58185524
36	0xbeb66545	-0.35624138
37	0xbf39877a	-0.72472346
38	0x3ea6567e	0.32487863
39	0xbf07fc59	-0.53119427
40	0x3d7d91be	0.06190657
41	0x3e82cd5c	0.25547302
42	0x3f76952d	0.96321374
43	0xbd989824	-0.074508935
44	0x3e6bda3d	0.2303247
45	0x3f17431d	0.5908678
46	0xbe146860	-0.14492941
47	0xbdb5fbdb	-0.08885928
48	0x3c41e520	0.011834413
49	0x3ec4e571	0.384563
50	0xbd4c613f	-0.04989743
51	0x3e9a2d19	0.30112532
52	0x3f977286	1.1831825
53	0x3de5f2aa	0.11227925
54	0xbe041c24	-0.1290136
55	0x3f18a53b	0.5962712
56	0xbd246aa2	-0.040140755
57	0xbe9593e6	-0.292144
58	0xbe25bc45	-0.161851
59	0x3f302507	0.688065
60	0xbe2538e6	-0.16134986
61	0x3f66701c	0.90014815
62	0x3f00cc27	0.5031151
63	0x3d5ef353	0.05443127
64	0x3ed7c313	0.42141017
65	0x3ef27984	0.47358334
66	0x3b669362	0.0035183062
67	0xbec360fd	-0.38159934
68	0xbeeb4f17	-0.45958778
69	0xbe05c0aa	-0.13061777
70	0xbe6c2014	-0.23059112
71	0x3dad9cf5	0.08477203
72	0x3d58ddbf	0.05294585
73	0xbeda420a	-0.4262851
74	0xbf4da1a4	-0.8032477
75	0xbec80f9b	-0.39074406
76	0xbd91efac	-0.07125792
77	0xbe3b8a2a	-0.18314424
78	0xbe99e302	-0.30056006
79	0xbeab1b0a	-0.33419067
80	0xbddebde0	-0.108760595
81	0x3eaf87c0	0.34283257
82	0x3f107e02	0.5644227
83	0xbf3be2b0	-0.7339277
84	0x3ef0eaca	0.4705413
85	0x3f09b3ba	0.53789866
86	0xbee1bd7c	-0.44089878
87	0x3eb310a0	0.3497362
88	0xbefeeb74	-0.4978901
89	0xbdad4ab0	-0.08461511
90	0xbd58e53e	-0.052952997
91	0xbdc036f9	-0.09385485
92	0xbd9811cb	-0.07425269
93	0x3e194ccc	0.14970702
94	0xbd9bc8c0	-0.076066494
95	0x3d84e1e9	0.064884014
96	0xbd99fc81	-0.075188644
97	0x3f411694	0.75425076
98	0x3e547d91	0.20751025
99	0xbe6d2c84	-0.23161513
100	0x3e87bd18	0.26511455
101	0xbe6a65a6	-0.22890338
102	0xbf8488f4	-1.0354295
103	0x3e0db9dc	0.13840431
104	0xbd0a5ccd	-0.033779908
105	0xbeab9395	-0.33511034
106	0xbfb67918	-1.4255705
107	0xbd816adf	-0.06319212
108	0xbf6476b4	-0.89243627
109	0x3f149eb6	0.58054674
110	0x3e7b5c4a	0.24546924
111	0xbd2ae823	-0.04172529
112	0xbf050e1d	-0.5197466
113	0xbe031057	-0.12799202
114	0xbf23ac89	-0.6393514
115	0xbf9223e7	-1.1417207
116	0xbf17891b	-0.5919358
117	0xbdb85391	-0.09000314
118	0x3e21a7d4	0.15786678
119	0x3f6092a4	0.87723756
120	0xbdb0021a	-0.08594151
121	0x3e8548c7	0.26032087
122	0xbccfebc5	-0.025380978
123	0xbf6d315f	-0.9265346
124	0xbe8fddb3	-0.2809883
125	0xbe9bb5cf	-0.30412146
126	0x3e4aeee4	0.19817692
127	0x3df7857b	0.12086006
128	0xbe242c86	-0.1603261
129	0xbf4eeb79	-0.8082805
130	0xbec35c06	-0.38156146
131	0x3e9546e0	0.29155636
132	0x3b9bca5f	0.004754349
133	0xbf99ebfd	-1.2025143
134	0xbe5a507e	-0.21319768
135	0x3cf36f0a	0.029716033
136	0x3d636d0b	0.055523913
137	0x3c5ed856	0.013601383
138	0x3e30eca7	0.17277776
139	0x3e69aa2a	0.22818819
140	0x3d815fca	0.063170984
141	0x3ed72084	0.42016995
142	0x3e494b34	0.19657594
143	0x3e87562d	0.26432934
144	0x3dd3a3b1	0.10333956
145	0xbea53c14	-0.32272398
146	0xbf005401	-0.5012818
147	0x3e8d12f4	0.27553523
148	0xbd4e4721	-0.050360803
149	0x3e533dbc	0.20629019
150	0x3ef74d28	0.48301053
151	0xbe8766cb	-0.26445612
152	0x3f13809f	0.57618135
153	0x3ddb4c5e	0.10707925
154	0xbd58f36d	-0.052966524
155	0x3d5e4a91	0.05427033
156	0xbe4cc0aa	-0.1999537
157	0x3e74b5c1	0.23897459
158	0x3da85bf2	0.08220662
159	0xbd6a6bbb	-0.057231646
160	0xbe4c5154	-0.19952899
161	0xbf2fd49a	-0.6868378
162	0xbf2a9ff4	-0.6665032
163	0x3f138e85	0.5763934
164	0xbe390211	-0.18067195
165	0x3ec5043a	0.38479787
166	0xbde61fcf	-0.11236536
167	0xbe711dc7	-0.23546515
168	0xbce6fe80	-0.028197527
169	0x3ebe1d69	0.37131813
170	0x3ec69fd5	0.38793817
171	0x3d289e3a	0.04116652
172	0x3d3cc5fd	0.046087254
173	0xbf7a567f	-0.9778823
174	0xbe0450a3	-0.12921385
175	0x3dbe72ee	0.09299265
176	0xbe98b55c	-0.29825866
177	0xbf87c2f6	-1.0606372
178	0x3f529cb0	0.82270336
179	0x3e812afc	0.25228107
180	0xbec94397	-0.3930938
181	0xbeead2f9	-0.45864084
182	0x3eab1602	0.33415228
183	0xbf1345cc	-0.57528377
184	0xbca87152	-0.020561848
185	0x3e5bbc84	0.21458632
186	0x3d42b90d	0.04753976
187	0xbf6ad379	-0.9172893
188	0x3ecb7c24	0.3974315
189	0x3f529628	0.8226037
190	0xbf3f3349	-0.7468763
191	0xbd54f67d	-0.051992882
192	0xbf649808	-0.8929448
193	0xbe5e0d6e	-0.2168481
194	0x3f50f056	0.81616724
195	0xbedc5dc3	-0.43040285
196	0x3ad7363c	0.0016419361
197	0x3f2b9a55	0.67032367
198	0xbdbbcd71	-0.09170044
199	0xbd14e4d0	-0.036351025
200	0xbde875ae	-0.113505706
201	0x3f3520e0	0.7075329
202	0xbd1b9e6c	-0.03799288
203	0x3f09813e	0.5371283
204	0xbd8b07fd	-0.06788633
205	0x3f7b260b	0.98104924
206	0xbef481c8	-0.47755265
207	0xbeb9c11e	-0.3628015
208	0xbc1831c9	-0.009289213
209	0x3f0c3d51	0.5478106
210	0xbf4d5d01	-0.8022004
211	0x3e9e82c9	0.30959156
212	0xbfa1c0c0	-1.2636948
213	0xbf18d511	-0.59700114
214	0xbf884f96	-1.0649288
215	0x3ef5e450	0.4802575
216	0xbfb847bd	-1.4396893
217	0xbdf64c62	-0.120262876
218	0xbd112d69	-0.035443697
219	0x3f1cc788	0.6124196
220	0x3defdbdb	0.11711856
221	0x3f0901f1	0.5351859
222	0xbdb98eda	-0.0906045
223	0xbd87f5ac	-0.06638655
224	0x3e974540	0.2954502
225	0xbf3f9d3c	-0.74849296
226	0x3d1bd3d6	0.03804382
227	0xbf190db7	-0.5978655
228	0x3e91fbbb	0.28512368
229	0x3e64b78e	0.22335646
230	0x3f24213d	0.6411322
231	0x3e4fb7ec	0.20285004
232	0xbd300240	-0.042970896
233	0xbbfe3a83	-0.00775844
234	0x3faa8861	1.332287
235	0xbdd457ed	-0.10368333
236	0xbe85c1f7	-0.26124546
237	0xbeb9a499	-0.3625839
238	0x3dc4cb0b	0.0960904
239	0xbda66f4d	-0.08126698
240	0xbdf76306	-0.12079434
241	0x3eb9e384	0.36306393
242	0xbe9036e1	-0.2816687
243	0x3f41940d	0.7561653
244	0x3ece7f1b	0.4033135
245	0xbec31443	-0.38101396
246	0x3de4a82c	0.11164889
247	0xbee3b22e	-0.44471878
248	0x3dcde8c7	0.100541644
249	0xbf0880cd	-0.53321534
250	0x3dd2ecee	0.10299097
251	0x3f3fe292	0.74955094
252	0x3e278214	0.16358215
253	0xbf45f98d	-0.7733391
254	0x3efa50b6	0.48889703
255	0xbd9dc342	-0.07703258

fc3.bias f4 [7]
0	0x3f3b24c9	0.73103005
1	0xbeb7b6ef	-0.35881755
2	0xbef0cfd0	-0.47033548
3	0x3eaa87a3	0.33306608
4	0xbf1ba58a	-0.6079947
5	0x3ec4fe95	0.3847548
6	0x3d98b408	0.07456213
