trained_models/ensemble_model/mlp_model_split1.pth (torch, 34018 bytes, 6 tensors)

fc1.weight f4 [64, 49]
000000 33 9d b7 bd ba de f8 bd e7 d4 1c be 1c 60 1a be
       -0.0896553 -0.12151857 -0.15315591 -0.15075725
000010 9f 13 01 3e aa b5 cb bd 4c 0c ab 3d ef ab 91 3d
       0.12605141 -0.09946759 0.08351955 0.07112872
000020 55 7c 92 bd 99 3b 56 be ab da e3 bd e6 67 64 be
       -0.07152621 -0.20921172 -0.11125692 -0.22305259
000030 83 df 30 bd 0a 56 0c bf c1 22 18 be 5f 23 34 be
       -0.043181907 -0.54818785 -0.14857008 -0.17591618
000040 fd 5d 04 3e d5 dd 4e 3d 1e 28 12 be 5a fa cd 3e
       0.12926479 0.050504524 -0.14273116 0.40230066
000050 e7 44 3e 3d 0c 6f f7 3c 17 14 12 3e 3a d7 50 be
       0.04645243 0.030204318 0.14265476 -0.20394602
000060 47 8b 72 3e 8d 4f bc 38 0e 07 40 3e 2a 62 4b 3e
       0.23685943 8.979356e-05 0.18752691 0.19861665
000070 97 45 72 be 4c 7a fe bd 94 05 2e 3e 39 8d 55 bd
       -0.23659359 -0.1242567 0.16994315 -0.052136634
000080 ed f8 1e 3e 26 b7 90 3d 19 c7 da be 63 57 d1 3d
       0.15524645 0.07066183 -0.42730024 0.10221746
000090 93 ea c4 bc 7c 04 68 3d 9d 96 b9 3e d4 66 34 bd
       -0.024037635 0.0566449 0.3624772 -0.044043377
0000a0 a2 aa 38 3e dd a8 c6 3e 99 7c 68 bc 02 e6 f0 3d
       0.18033841 0.38800707 -0.014189863 0.117626205
0000b0 d9 76 c0 3d 02 d3 c5 3d 96 c4 9f bd 18 f4 9d bd
       0.093976684 0.09659387 -0.07801168 -0.07712573
0000c0 57 dd 07 be 6b 08 0b bd f8 6b 00 bf 00 6f 4f bd
       -0.13268028 -0.033943575 -0.5016475 -0.050642967
0000d0 26 58 2a bf 09 17 2e 3d 63 c6 48 be 61 67 d9 3e
       -0.66540754 0.042502437 -0.19606929 0.42461684
0000e0 f6 dc 84 3e 0d e0 a8 3e 71 99 07 bf 61 78 ed bc
       0.2594983 0.32983437 -0.5296851 -0.028988065
0000f0 e3 4d 27 3d cb 70 66 3e 11 0a 2e 3f b8 db 0e 3f
       0.040845763 0.22503965 0.6798411 0.55804014
000100 a0 0c d5 3e ba 67 9d 3d 7e b8 f3 3e 2e 69 d1 3e
       0.41611195 0.076858 0.47601694 0.40900558
000110 fc 12 25 bf fc 82 72 3e 5f 73 a5 3e 03 b1 75 bd
       -0.6448209 0.23682779 0.32314584 -0.059983265
000120 46 8f 3f 3d 1b 1f 4f be 54 0d 1a 3d 72 c8 5d 3e
       0.046767496 -0.2022671 0.037610367 0.21658495
000130 80 f1 8b be c1 3b db be 84 01 a6 3e bd fb b3 bc
       -0.27332687 -0.42819026 0.3242303 -0.021970624
000140 d5 6c c7 3d 98 74 ef 3c 6a e7 8d 3c 8f 6d c8 be
       0.09737555 0.0292304 0.01732226 -0.39146087
000150 7c bd 2f be a9 80 e5 be 6f 12 98 bc a6 92 f5 3c
       -0.17162126 -0.44824722 -0.018563477 0.029977154
000160 76 59 81 3e 2f 74 27 bf 0f 8b 7a be b8 89 b1 3c
       0.25263566 -0.6541166 -0.24467109 0.021672115
000170 31 12 a9 3e e8 96 d5 bd bf 66 48 bd d9 46 0a 3e
       0.3302169 -0.10429174 -0.04892611 0.13503589
000180 bd d5 86 be b0 83 a4 be 90 f5 ca bf 4b 02 3b bf
       -0.26334944 -0.3213172 -1.585619 -0.73050374
000190 5d 3d d5 3e 4d 1e 3d bd 67 c0 be be d1 8b 67 bd
       0.4164838 -0.046171475 -0.37256166 -0.056529824
0001a0 48 18 03 be b1 11 66 3f 20 d1 81 3d fb 6c c9 be
       -0.12802231 0.89870745 0.063387156 -0.39340958
0001b0 8c 49 80 3e 29 f2 df 3d 8b 52 ac be 94 55 f5 3e
       0.25056112 0.1093486 -0.33656725 0.47916853
0001c0 b9 b2 3d 3d 04 b1 ad 3d 67 df b9 bd 7c 92 f9 bd
       0.04631302 0.08481029 -0.09075814 -0.12186143
0001d0 de 3d 56 be ff 53 05 be 9f 72 83 be da 4e 40 bf
       -0.20922038 -0.13020323 -0.25673386 -0.7512032
0001e0 e9 72 aa be c6 76 93 3c cc 93 0b 3f a6 04 03 3f
       -0.33290794 0.018000972 0.54522395 0.5117897
0001f0 bd 55 62 3f 5c 3e 28 3f 25 a0 92 be 73 a1 ef 3d
       0.88412076 0.6572015 -0.28637806 0.11700716
000200 57 98 a5 be f0 27 b8 bd c7 a4 95 3e 90 1c 68 3f
       -0.3234279 -0.089919925 0.29227278 0.9066858
000210 bd 58 23 3f 89 62 10 3e 32 73 10 bf e5 7c 5a bb
       0.6380728 0.14100088 -0.56425774 -0.0033338603
000220 32 84 d6 be 83 c3 80 3e 7a e0 a1 3e 7d df 64 3f
       -0.41897732 0.25149164 0.31616575 0.89403516
000230 48 86 1c 3d 40 43 56 be 71 81 d6 bc 5c 98 87 be
       0.038213998 -0.20924091 -0.02618477 -0.26483428
000240 35 05 49 3e 5d b0 d4 3e 5e a4 da bd d2 54 ad 3d
       0.19630893 0.41540805 -0.10675882 0.08463444
000250 ea 4d 87 3c c6 94 e4 bd 36 a1 5b bd c7 48 83 3d
       0.016516645 -0.11161189 -0.05362054 0.064103656
000260 b8 9c dc 3d de 00 94 3d 6c 5a 62 bd 6d 99 f2 bd
       0.10772079 0.07226728 -0.055262014 -0.1184567
000270 e2 5d ad bd 92 26 ed 3d 2c a3 fd bd 35 ba 01 be
       -0.08465172 0.11579622 -0.12384638 -0.12668689
000280 5b 4f d7 3c 14 65 36 bd 71 5b 5c 3d e2 eb b3 3c
       0.026282957 -0.04452999 0.053798143 0.021963064
000290 ee 49 6e bd fa e8 ba bd ba 3c bd 3c 9b 2c 22 3d
       -0.058175974 -0.09126468 0.023100246 0.03959332
0002a0 b8 4f d6 bd 79 48 b4 bd 3b 07 05 bd 6f 4a a7 bd
       -0.10464424 -0.088028856 -0.0324776 -0.08168494
0002b0 aa 55 fb bd 5c dc 04 3d 49 d4 e2 bd a9 2e 45 bc
       -0.122721985 0.032436714 -0.110756464 -0.01203505
0002c0 44 8f 33 3d 1c bc 35 bd f8 ba 77 3d 73 11 f2 3b
       0.0438378 -0.04436885 0.06048104 0.007387334
0002d0 af 48 d9 3d 55 86 e9 3d 2e 17 d7 bd ec 5b ec 3d
       0.106095664 0.11402575 -0.10502468 0.1154097
0002e0 4e 8c 00 be 9b 83 20 3d cc c2 dc bc a2 c1 00 3e
       -0.12553522 0.03918801 -0.026948355 0.12573865
0002f0 c5 e2 58 bd 21 d3 72 bd ca a6 06 3c d5 5e 8a bd
       -0.05295064 -0.05928338 0.008218477 -0.06756369
000300 0a ec 6b bd d3 42 20 bd b3 28 16 3d ca ec a3 bc
       -0.05759815 -0.03912623 0.036659908 -0.02001037
000310 6f 08 ee 3f 4b 19 8e 3f ea a3 8c be de e4 1f 3e
       1.8596324 1.1101469 -0.27468807 0.1561465
000320 5c e5 4b be 84 86 9d be e3 6c 1d bf 55 5c 6e 3e
       -0.19911712 -0.3076669 -0.6149427 0.2327741
000330 6d 9a 28 3d f3 04 4c 3e a0 a1 e9 3d 4d 2f b1 3e
       0.041162897 0.19923763 0.11407781 0.346064
000340 41 7e 42 3f 62 96 ca bc 9c bc 4e be c0 c2 1d be
       0.759739 -0.024729911 -0.20189136 -0.15406322
000350 33 6f 9b 3e 56 eb 80 3d 03 8d e7 3d 3b e9 19 3d
       0.30358276 0.06294887 0.11306193 0.03757594
000360 99 53 fe 3e 5f e9 92 be e6 aa 9f bd a9 b4 1a bf
       0.49673155 -0.28693673 -0.07796268 -0.60431916
000370 a1 23 2a bf f0 c4 22 bf 7d f3 e9 be a8 79 a8 be
       -0.66460615 -0.6358175 -0.4569358 -0.32905316
000380 07 74 55 be 67 ab 4e bf 29 5d ee 3e 7e a8 fc bd
       -0.20845042 -0.8073029 0.4655545 -0.12336825
000390 23 aa 97 3c f4 74 30 bf b6 de 5d 3d be 32 0e bf
       0.018513745 -0.68928456 0.05416747 -0.55546176
0003a0 56 e9 68 3f 1d 55 5f bc 12 fa 5b 3f 0a c8 a3 3e
       0.9098104 -0.013631132 0.8592845 0.31988555
0003b0 11 67 b1 3d 9c 9e 62 bf e0 bb 32 be 9c 67 8c 3e
       0.086622365 -0.8852327 -0.17454481 0.27422798
0003c0 89 d2 0a bf bf 08 15 3e 81 98 8d 3d 89 62 b9 be
       -0.542275 0.14554118 0.069138534 -0.3620799
0003d0 de 37 0b be cd b7 71 bf 05 ea d7 be c5 8e 58 3d
       -0.1359553 -0.9442108 -0.4217073 0.05287053
0003e0 61 08 d0 3d 35 6c 2d 3e 37 15 4c 3e 27 c6 47 3e
       0.10157848 0.16935809 0.19929968 0.19509183
0003f0 a4 20 27 bd 0b 5c 12 be 84 9d e9 3e 0d c8 cb 3d
       -0.040802613 -0.14292924 0.45627987 0.09950266

fc1.bias f4 [64]
000000 4b e3 05 3e c3 5f ee bc 5f a3 7b bd 1a e3 00 be
       0.13074987 -0.029098397 -0.0614351 -0.12586632
000010 63 85 27 bf 89 8e 33 be 86 e0 12 3e 62 6a 93 bc
       -0.65437907 -0.17534842 0.14343461 -0.017995063
000020 d3 36 c0 bd 55 36 0b bf 7e 12 0c 3e 88 63 0d 3d
       -0.09385457 -0.5437978 0.13678929 0.03451875
000030 43 78 d3 bd 28 3f 24 3e 7e 05 ac 3e 90 7e 0d 3e
       -0.103256725 0.16039717 0.3359794 0.13817811
000040 0c 68 0a 3e 2e 56 20 be b5 14 c5 bd 85 5e 16 bf
       0.13516253 -0.15657875 -0.0962309 -0.58737975
000050 3f 6e 88 bd 79 48 63 bd 18 5d 03 3c e6 c6 15 be
       -0.06661653 -0.055489037 0.008017801 -0.14626655
000060 bc a5 d5 bd 63 d4 6c bc 70 7d 6a be a5 ea 35 3e
       -0.10432002 -0.014454934 -0.22899413 0.17765291
000070 62 cd 8c 3e a8 fc a8 3d 59 18 2d bd 40 1f 12 3e
       0.27500445 0.08251315 -0.042259548 0.14269733
000080 1c 2f dc 3d 6f 56 fd 3d 85 d6 d7 bd 73 ec fb bd
       0.10751173 0.123700015 -0.10538963 -0.123009585
000090 c7 3e 78 be 1b 66 b0 3e 04 28 bf 3d e8 91 ff 3d
       -0.24242698 0.344529 0.09333804 0.12479001
0000a0 b8 31 9a 3d ce 7b a6 bd 16 72 cb 3d 8c b9 f4 3d
       0.07529014 -0.081290826 0.099338695 0.11949453
0000b0 be 7b 0a be 51 01 05 3e 7d 75 4f bd b8 8a 02 3e
       -0.13523766 0.12988783 -0.050649155 0.1274823
0000c0 fd cc cd 3d 93 52 07 bd dd cb b6 be 18 30 bc 3d
       0.10048864 -0.033037733 -0.3570241 0.09188861
0000d0 ed a2 1b bd a2 5e 8e bd 54 85 3b be 38 05 47 bd
       -0.037997175 -0.069516435 -0.1831258 -0.04858896
0000e0 ec 8f df 3d 95 e4 27 3c 5e 4d 19 3e 03 07 8f 3e
       0.10916123 0.010247369 0.1497092 0.27935037
0000f0 11 e9 ee 3d 88 46 47 bd 0f 91 19 3e b3 81 64 3c
       0.11665548 -0.04865125 0.14996742 0.013946938

fc2.weight f4 [64, 64]
000000 98 28 f4 3d 4e 7e d3 3c 6f 70 d9 bd 79 3c 17 bd
       0.11921805 0.025817063 -0.10617148 -0.036922906
000010 f7 9c 81 bd 1b e6 b3 3c 9c 98 ad 3d 77 42 c3 bd
       -0.06328767 0.021960309 0.084763736 -0.095341615
000020 a8 3c ed bd f3 b4 5e bd 5d 24 84 3c 0b 25 ca 3d
       -0.11583835 -0.054371785 0.01613062 0.09870347
000030 62 4a 4e 3d 77 76 d0 bd 40 61 72 3c 35 37 6d 3d
       0.050363906 -0.101788454 0.014793694 0.057913978
000040 bb 95 50 bd b5 81 6f 3d 88 6c ad bd f4 c7 93 bc
       -0.050924044 0.058473308 -0.08467966 -0.018039681
000050 0c 51 46 bd b7 30 6a 3d 96 76 10 bc bf 7c 97 3d
       -0.048417136 0.057175364 -0.008817336 0.0739684
000060 62 f3 00 be 92 1e 2d 3d ed b1 b9 bd f5 56 63 3d
       -0.12592843 0.042265482 -0.0906714 0.05550285
000070 27 f5 89 bd 56 f9 e0 bd 82 cb 13 3e 8a 98 f5 bd
       -0.06736212 -0.10985057 0.14433101 -0.11991985
000080 c3 25 64 bd af 7e 42 3d 01 2a b6 3d d8 95 8b bd
       -0.055700075 0.047484096 0.0889473 -0.0681569
000090 10 b2 86 bd d1 be 40 3d bb c3 0a 3d dd 0b b1 bd
       -0.065769315 0.047056977 0.03387807 -0.08644841
0000a0 67 76 b7 3d 81 95 65 bb 5a 5e aa bd bb 28 dd bc
       0.0895813 -0.0035031738 -0.083187774 -0.02699696
0000b0 dc 1d bf 3d 21 2f 08 3c 02 8b 7e 3c d0 58 e0 3c
       0.09331867 0.008312018 0.015536072 0.0273861
0000c0 0f e9 a8 3d 2f 29 a6 3d fc 1b a5 bb d0 d2 e4 bd
       0.082475774 0.08113324 -0.0050387364 -0.11173022
0000d0 94 d7 6e 3d 25 7b 30 bd 4e 23 1d bd 4d d6 21 3d
       0.05831106 -0.04308619 -0.038363747 0.039511014
0000e0 79 28 60 3d 6c f6 b0 bd 62 08 42 3d c0 0b f4 ba
       0.054726098 -0.08640751 0.047371276 -0.0018619224
0000f0 b4 1b 03 bd 05 a2 cf bd 93 da 5d bd 9b fc ae bd
       -0.03200884 -0.10138325 -0.054163527 -0.085442744
000100 75 0e ed 3d ae 87 ca 3d a1 b4 c7 bd f8 c2 eb bd
       0.11575023 0.0988916 -0.09751249 -0.11511797
000110 be 78 3a 3c 90 71 1b 3d 9c 07 ae 3d af ad 00 3e
       0.011381326 0.0379501 0.08497545 0.12566255
000120 0a e1 8f bd e6 3b c5 3d e4 8a 10 3e af 82 ee 3d
       -0.07025345 0.09630565 0.14115483 0.1164602
000130 74 c6 82 3d 1f 66 9a bc 4b ee b3 bd b7 58 36 3d
       0.06385508 -0.018847523 -0.08785685 0.0445182
000140 e8 bb b7 3d 31 f7 35 3d 48 71 bc 3d de 98 0a 3c
       0.08971387 0.044425193 0.09201294 0.008459298
000150 b4 e7 99 3d f6 14 66 bd b4 d2 bc bd ec 92 bf bd
       0.07514897 -0.056172334 -0.09219876 -0.09354195
000160 4a 98 07 3d d6 44 77 bd 31 49 10 bd c6 0c 15 bd
       0.03310422 -0.06036838 -0.03522605 -0.036389135
000170 9f 4e ee bc 1f 91 99 3d 09 25 90 bd 35 89 09 bd
       -0.029090224 0.07498383 -0.07038314 -0.033578116
000180 c4 fb 5a bd 7a 94 b4 3d 1a bd 5a bd 9a ec 81 bd
       -0.05346276 0.08817382 -0.053402998 -0.06343956
000190 52 7d fe bd 28 50 43 bd a1 26 2e bd 98 f2 eb 3d
       -0.12426247 -0.047683865 -0.04251731 0.115208805
0001a0 fb b1 f0 bd c3 79 62 bd 9a 96 f9 3d 9b a5 96 bd
       -0.11752697 -0.055291902 0.12186928 -0.073558055
0001b0 c1 25 e3 3b 22 c2 df bc 6f f0 0e 3d 12 34 bd bd
       0.006931991 -0.02731425 0.034897264 -0.09238447
0001c0 75 b6 f3 bd 66 e7 c0 bd 44 1a 87 bd 84 0d a9 bd
       -0.11900035 -0.09419136 -0.06596807 -0.08254531
0001d0 82 ba e2 bd 35 f1 41 bd ae 6d 01 be 14 9d c8 3d
       -0.1107073 -0.047349174 -0.12639496 0.09795585
0001e0 32 6e d9 bd bd 6e 5a 3d 5b 91 97 bd 9c 72 47 bd
       -0.10616721 0.053328265 -0.07400771 -0.048693284
0001f0 80 0f dd bd c4 05 0c bd 04 6d 92 3b 46 57 17 3d
       -0.10793972 -0.034185186 0.004468562 0.036948465
000200 f5 91 c4 bd 5d b9 d7 bd 57 cb 83 3d 37 a0 ed bc
       -0.095981516 -0.10533402 0.06435268 -0.02900706
000210 77 cc ab bc aa 7d 05 be d5 7d b8 3c fa 74 eb 3c
       -0.02097152 -0.13036218 0.022520939 0.028742302
000220 e2 52 ba 3d 08 76 97 3d 03 5e e6 3d 56 93 4c bd
       0.0909784 0.073955595 0.112484 -0.049945198
000230 5c b0 1c 3d fb 1c 9b 3d 7d 6c a4 3d 20 bf c1 bb
       0.038254127 0.07573887 0.08028505 -0.0059126765
000240 bc ce 71 bd 6a ad 3b 3d 7f 44 c9 3d 00 8d 84 3d
       -0.059035048 0.045819677 0.09827518 0.06472206
000250 f8 cc 03 3e c7 30 4d bd 18 b0 63 bd c9 70 99 bd
       0.12871158 -0.050095346 -0.055587858 -0.07492215
000260 77 61 ce 3d eb 3e 96 3d 35 47 b6 bd 25 63 ab bd
       0.10077184 0.073362194 -0.089003004 -0.0836852
000270 fc 5f 02 be f5 0f f7 bd 21 0d b7 bd 3c 9e 6a 3d
       -0.12731928 -0.120635904 -0.08938051 0.05727981
000280 71 b5 c4 bd da 29 93 3c 39 97 c0 bd 82 99 ce 3d
       -0.0960492 0.017964292 -0.094038434 0.10087873
000290 83 d8 5a bd 22 74 91 bd e2 e4 56 3d 61 49 64 3d
       -0.053429138 -0.07102229 0.052464373 0.055734042
0002a0 02 c2 f2 bc e0 5f c3 bc ac 79 c8 bd b7 7e ff bd
       -0.029633526 -0.023849428 -0.09788832 -0.12475341
0002b0 18 21 f9 bd af 63 d6 bd 35 44 b0 bb 1c 55 c4 bc
       -0.12164515 -0.10468232 -0.0053792247 -0.023966365
0002c0 cb 85 43 3c ef 39 ab 3d 4f c2 91 3d ce bf 6d bd
       0.011933754 0.08360659 0.071171395 -0.058044247
0002d0 95 21 65 3d b9 4f c8 bd 18 85 89 3d 42 be 87 bd
       0.05594023 -0.09780831 0.06714839 -0.06628086
0002e0 6c 02 ac 3d 90 95 42 bd 58 cd a6 bd af ac e5 bd
       0.083988994 -0.047505915 -0.08144635 -0.112145774
0002f0 58 24 62 3d 99 3b 93 bd f4 53 b1 3c de e8 02 3d
       0.05521044 -0.07189102 0.021646477 0.03196036
000300 99 1f d9 3d 57 5b 32 3c 0e f3 45 3b da 64 e1 bd
       0.1060173 0.010886035 0.0030204686 -0.11005564
000310 7d 4c 57 3d 21 41 09 be 87 53 bc 3d 09 12 45 3d
       0.05256318 -0.13403751 0.09195619 0.048112903
000320 b8 19 d3 3c 91 33 c4 3d 49 ac df bd 80 93 ad 3b
       0.0257691 0.09580148 -0.10921533 0.0052971244
000330 16 8b ac bd 7d 13 17 3c a1 e6 a6 bd 51 77 a5 bd
       -0.08424966 0.009220955 -0.08149458 -0.080793984
000340 d6 86 42 bd 26 27 90 bc 1f b7 1f 3e e2 b7 70 3d
       -0.04749187 -0.017596792 0.15597199 0.058769114
000350 0f 65 0f be 73 38 fb 3d 94 14 d5 3d d2 53 20 3d
       -0.14003395 0.12266626 0.104043156 0.039142437
000360 70 22 9c 3c 90 a2 9c bc ac 85 a3 bb 21 86 eb bd
       0.01905939 -0.019120485 -0.0049903 -0.115001924
000370 ac 22 82 3d a3 0c ed 3c d6 12 8e bd b2 8a c7 3d
       0.063542694 0.02893669 -0.069371864 0.09743251
000380 65 6f 0c bd 49 22 46 3d 5b f8 61 bd d2 fa a2 3d
       -0.03428592 0.04837254 -0.05516849 0.079579964
000390 7f c6 a6 3c 29 1c b2 3d 72 a7 de bd 33 16 d3 3d
       0.020358322 0.086967774 -0.108717814 0.103069685
0003a0 da 28 fe 3b 47 94 32 bd 71 ac e4 3c 80 bd 4f 3d
       0.0077563347 -0.04359844 0.027914258 0.05071783
0003b0 88 6f 4a 3c 30 63 16 3d b3 a9 cd 3d 5b b7 b6 bd
       0.012355693 0.036715686 0.10042133 -0.08921691
0003c0 7d da 39 3c 09 7c df bd 7b 95 90 bd b5 84 6a 3d
       0.011343596 -0.1091233 -0.07059761 0.057255466
0003d0 59 4e e8 bd 8b 39 24 bb fe c3 1c be b8 b6 82 3c
       -0.11343069 -0.0025058712 -0.1530914 0.015956268
0003e0 b9 f2 e7 bd 6b 9c 3a bd 4f 4b 05 be aa 34 cc 3d
       -0.113255925 -0.045559328 -0.13017009 0.099709824
0003f0 c6 4d bc bd 2a 34 50 bc 94 6c 03 3e f6 40 24 3d
       -0.091945216 -0.012707749 0.12834388 0.040101014

fc2.bias f4 [64]
000000 23 44 53 bc 87 5a 0f be d9 7a 0b be ee fa 0c be
       -0.012894663 -0.13999377 -0.13621081 -0.13767597
000010 98 76 13 3e f6 26 0b 3d d5 30 ea bd cb 77 d0 bd
       0.14400709 0.033972703 -0.11435095 -0.10179099
000020 eb 68 a1 3e 1b f6 11 3e 5e 30 77 3e 02 38 ee bd
       0.3152536 0.14254038 0.24139544 -0.116317764
000030 0d f1 63 3d 5b 6d f3 3d b3 53 c0 3e 46 0f 14 be
       0.055649806 0.11886092 0.37563857 -0.14458951
000040 03 ae 96 3e cf fa 9e 3e e2 e6 b7 bd 34 9d cd 3e
       0.29429635 0.31050727 -0.08979584 0.40159
000050 36 2e 06 3e 25 a5 25 3e b5 99 eb bd e4 bf c3 bb
       0.13103566 0.16176279 -0.11503927 -0.005973803
000060 7b 08 9a 3d 36 42 13 be a9 86 b6 bc 87 80 f3 bd
       0.07521149 -0.14380726 -0.022281008 -0.11889749
000070 6d 0c dc 3d 2b 06 3c 3e 28 a9 a8 3d 98 9f 0f 3e
       0.107445575 0.18361728 0.08235389 0.14025724
000080 6f ee 93 3e 6a 72 4d bc 19 2b 6c 3e 31 c7 d2 3e
       0.28892848 -0.0125394855 0.23063315 0.41167596
000090 b4 52 0b 3d ff 99 b2 3e 48 99 c2 3e 6d e3 2f 3e
       0.03401442 0.34883115 0.3800757 0.171766
0000a0 eb 06 d0 3d 97 fd 5e 3e 01 d1 51 3e f0 1d 0c be
       0.101575695 0.21776424 0.20489885 -0.13683295
0000b0 5f 35 cc bd 22 a2 ab bd 3a 52 fa bd e1 e2 fe bc
       -0.09971117 -0.08380534 -0.12222715 -0.031114044
0000c0 ef ab 2d bd b3 d6 7c bd 38 3a 58 be 83 db 82 3e
       -0.042400297 -0.06172819 -0.21115959 0.255581
0000d0 40 3d 48 3a f8 17 89 3e 48 6c 6f bd f2 5f 09 3e
       0.00076385215 0.267761 -0.058452874 0.13415506
0000e0 c1 8a 2a 3e 7f c2 7e bd 67 88 db bd ac 39 b0 3d
       0.16654493 -0.062197205 -0.10719376 0.0860475
0000f0 5a 8e ae bd 0d 23 8f bd d2 65 94 bd 2f 66 0a be
       -0.08523245 -0.06989107 -0.07245983 -0.13515542

fc3.weight f4 [7, 64]
000000 c5 21 90 b9 36 9c 30 3d 49 28 b2 b9 d2 85 18 3e
       -0.0002749098 0.043117724 -0.0003398082 0.14894798
000010 09 63 d1 be 28 95 31 bf 0c 3e 21 be 40 c6 84 3e
       -0.4089587 -0.6936822 -0.15746325 0.25932503
000020 5e 62 0f 3f 10 93 6e bf 85 f6 66 3f 9e 14 63 bd
       0.5600947 -0.9319315 0.9021991 -0.055439584
000030 79 9a a0 3d f8 87 36 bf 93 de 0a 3f fe b4 f5 3d
       0.07841963 -0.7130122 0.5424587 0.11997412
000040 49 c5 23 3f 91 b4 21 3e 14 8f 60 bd 6a 9b b5 3e
       0.6397291 0.15791537 -0.05482395 0.35470134
000050 58 66 f5 be 42 e0 10 3f 3a c9 1f 3f 7d 40 b2 3e
       -0.47929645 0.5659219 0.6241642 0.34814826
000060 69 c4 08 bf 0f 70 8f bd de c6 b9 3e 89 59 89 bd
       -0.534247 -0.07003795 0.36284536 -0.067065306
000070 41 25 ad 3d d8 6d 9b 3e 06 0f 8f 3c 69 df a6 3e
       0.08454371 0.30357242 0.017463218 0.32592323
000080 81 ba 93 3f ff 28 cf be dc 6f ba 3e 33 aa 69 3f
       1.1541291 -0.40460965 0.36413467 0.9127533
000090 c5 17 e3 3c 42 84 b3 be 51 bc ff 3d 3b 79 cf 3e
       0.027721295 -0.35061842 0.124870904 0.4052218
0000a0 ac f5 e6 3e 68 30 1e 3e 6d 80 41 3f 4e e2 46 3d
       0.45109308 0.15448153 0.7558659 0.048555665
0000b0 5c 0c 95 3e 0d 0a 50 be f3 2a e7 bd 87 f6 60 bd
       0.29110992 -0.20316334 -0.11287489 -0.054922607
0000c0 96 7d 04 3e 87 04 e6 bd 49 8d 19 bd ff e2 2f 3f
       0.12938532 -0.11231332 -0.037488256 0.68705744
0000d0 52 51 b8 bd 64 7a 25 3d ad e7 bd bf 16 b6 b0 3d
       -0.089998856 0.040399924 -1.4836327 0.0862848
0000e0 ee 9e 96 3e 29 b1 a8 bd 30 2f 17 be 43 0a 1c bb
       0.2941813 -0.082369156 -0.14764094 -0.0023809827
0000f0 8d 07 a9 bd 15 80 b5 bd a3 ad 20 3d a2 75 56 3e
       -0.08253393 -0.0886232 0.039228093 0.20943311
000100 04 b9 1b 3e 25 8a ce 3d b2 9b d3 3d 3e a1 9b bd
       0.15207297 0.10084943 0.10332431 -0.07599114
000110 f9 fc b3 3e 42 01 ff be 18 92 b0 3d 48 b2 e8 3e
       0.3515394 -0.49805647 0.08621615 0.45448518
000120 bc a1 14 3f 37 43 72 3e 3b e0 ff 3e 1e 96 ff 3d
       0.5805929 0.23658453 0.49975762 0.124798045
000130 ab 52 0c be 84 be 34 3e 72 82 3a bf 36 ae fe bd
       -0.1370341 0.17650801 -0.72855294 -0.12435572
000140 f4 03 6d 3e 6e 05 89 be 69 56 05 3c 70 e6 53 3e
       0.23146039 -0.26761955 0.008138278 0.20693374
000150 07 d8 cc 3e 5e 5b a2 be f6 67 d6 3d 1e 38 ee bd
       0.40008566 -0.31710333 0.10469048 -0.11631797
000160 ba b5 33 3f 5f 8b 93 3d 4d 3e a7 be 01 45 3e bd
       0.7019917 0.07204317 -0.3266472 -0.046452526
000170 14 b3 1c bf d2 75 66 bf ae 97 99 3e 44 9e 36 bd
       -0.6121075 -0.9002353 0.29998535 -0.044584528
000180 8e e9 99 3e 84 bc 7d bf 55 38 8d be bb f9 c9 be
       0.30061 -0.99115777 -0.2758204 -0.39448342
000190 b0 ff 02 be 98 c3 16 bf ae ce 59 3f dd fd ea 3d
       -0.1279285 -0.588922 0.85080993 0.11474202
0001a0 0a 9a 63 3e d3 07 c5 3e ba a0 7b 3d 77 71 cd bb
       0.2222673 0.38482532 0.061432578 -0.0062696296
0001b0 a7 f6 4f bc 57 d9 4d bd c4 cd c7 3d 96 b6 78 3d
       -0.012693084 -0.0502561 0.097560436 0.060721003
0001c0 e8 cf ad bd 46 16 c4 bd c2 55 da bd f0 cc 0d 3f
       -0.084869206 -0.09574561 -0.10660888 0.55390835
0001d0 b8 fa d0 3c 45 58 3e bf 34 aa 94 3c 87 f7 cf bd
       0.025510177 -0.7435344 0.018147565 -0.10154634
0001e0 de f4 94 bf 91 d1 3f 3d a5 9b b2 3d b4 58 f8 be
       -1.1637228 0.046830717 0.08721093 -0.48505175
0001f0 83 e2 32 3d d4 80 10 bd 9a 08 80 bf 00 62 ad bb
       0.04367305 -0.03527911 -1.0002625 -0.0052912235
000200 bd c5 f3 bd 30 7f bd 3d 10 54 b8 bd 75 b2 a6 bd
       -0.1190295 0.09252775 -0.09000409 -0.08139507
000210 ff 54 8b bd c4 e4 85 3e ff 0b 38 bd e0 e1 44 bd
       -0.06803321 0.26151097 -0.044933315 -0.048066974
000220 e4 18 cd be 5b 1c 07 be 36 b6 99 be 41 76 a9 3d
       -0.40058053 -0.1319441 -0.30021828 0.08274508
000230 9b ad e2 3c 9e 22 0b be 9c 4f 26 bf df ae 92 bc
       0.027670672 -0.13587424 -0.64965224 -0.01790565
000240 0d 91 af be 9c 00 6c bd 99 5b fa bd 91 63 14 bd
       -0.34290352 -0.05761777 -0.12224502 -0.036227766
000250 29 f3 ac be f6 4b 95 bf e7 bd 90 3a b3 a5 f6 3c
       -0.33779266 -1.1663806 0.0011042923 0.030108308
000260 fb 42 3c be 18 b0 84 3d 08 6b 2e bb 72 87 8c 3b
       -0.18384926 0.064789 -0.0026614089 0.0042886073
000270 ee 91 c1 3e 93 38 3d be d2 f5 19 be df 55 d3 be
       0.37806648 -0.18478613 -0.1503518 -0.41276452
000280 63 68 74 bf 88 9d c3 3f 02 10 1d bf 72 d6 70 3e
       -0.9547178 1.528245 -0.6135255 0.23519304
000290 9c f5 a8 bd 70 92 27 3e e3 83 39 be c5 65 70 bf
       -0.08249971 0.16364455 -0.18116717 -0.9390529
0002a0 b0 6a 1c 3f e9 f4 01 bf f2 d3 c1 3d 57 2c b9 3d
       0.6110029 -0.5076433 0.094642535 0.0904166
0002b0 72 60 23 3e 9e da 5c 3e 2c 38 82 bd 93 f5 01 be
       0.1595476 0.21567771 -0.0635837 -0.12691335
0002c0 34 e3 23 3d 7c be 3c bc ae 23 c3 3d b2 44 47 bf
       0.0400116 -0.011520024 0.0952829 -0.77839196
0002d0 59 9f a7 bd 71 d2 36 3d 59 cf 83 be 26 70 dd bd
       -0.0818469 0.044634286 -0.2574413 -0.10812406
0002e0 9b 78 16 3e 48 f8 22 bd ec 5f 82 bd 7b 48 cb be
       0.14694445 -0.03978756 -0.06365952 -0.39703736
0002f0 a9 10 12 bc a9 92 7a 3d cb a7 1e 3f 42 f7 d3 3c
       -0.008915105 0.061175022 0.6197478 0.025874738
000300 56 85 1f 3b f8 2a d9 bd d3 19 9c bd 66 94 63 bd
       0.002434095 -0.10603899 -0.07622113 -0.055561446
000310 6f b1 27 3e 28 09 98 3e 81 87 39 3e 0d 2d 1d bf
       0.1637628 0.29694486 0.18118097 -0.6139687
000320 43 27 83 bf 66 ae 7a 3f 9e 99 62 3e 0b aa 82 3d
       -1.0246357 0.9792236 0.22128913 0.06380089
000330 95 61 3b bd c6 b4 24 3d 8e dc 22 3f fa ae 90 bc
       -0.04574736 0.04021146 0.6361779 -0.01766156
000340 3a b1 95 bd 64 a2 0f 3f 44 be cb 3c 43 8f 92 bf
       -0.07309194 0.56107163 0.024871 -1.144997
000350 2c 25 13 be c3 5c b1 3f 67 b0 9d be 74 61 00 bd
       -0.14369649 1.3856434 -0.30798647 -0.03134294
000360 13 77 46 be 1c 22 05 3d 6e ab 9f 3d e5 61 83 bd
       -0.1938136 0.032503232 0.077963695 -0.06415156
000370 13 31 49 bf 45 20 28 3f f8 0b 87 bc 85 6c 79 be
       -0.78590506 0.6567424 -0.0164852 -0.24357803
000380 f2 6f 8d be b4 fa b6 be a3 ac 14 3e 92 95 68 bf
       -0.2762447 -0.35738146 0.1451898 -0.90853226
000390 da f9 6c bd 0c ce c0 bd be 1d 8f bf bf 30 b1 bd
       -0.057855465 -0.094143 -1.1180952 -0.08651876
0003a0 80 7a 77 bf ca 95 2e bf 32 73 23 be fc c6 78 3d
       -0.96671295 -0.6819731 -0.15961912 0.06073664
0003b0 d7 ff 0f be 61 61 f1 bc 08 8e f2 bc 7f 9a 1c bd
       -0.14062439 -0.02946538 -0.029608741 -0.038233276
0003c0 6c 40 3f be 37 a9 df bd 23 9c 44 ba d9 97 ed be
       -0.18676919 -0.10920947 -0.0007500073 -0.46404913
0003d0 3a 6e eb 3d f3 93 a1 3e 7e 3b b7 3f 14 2a 65 bd
       0.114956334 0.3155819 1.431503 -0.055948332
0003e0 d0 fd aa 3f ad 6a bd bd db 2f 9e bd f6 1f 82 be
       1.3358707 -0.092488624 -0.077239715 -0.2541501
0003f0 31 e3 10 3c 39 fb c5 3d 7d df 19 3f 3d b8 8a be
       0.008843229 0.096670575 0.6010664 -0.27093688

fc3.bias f4 [7]
000000 95 89 30 3f fc 23 f1 be 4c 03 da be 2e 6d 1e be
       0.68959934 -0.47097766 -0.4258064 -0.15471336
000010 07 c1 e0 be 60 b3 0c 3f d8 0c bb b9
       -0.43897268 0.54961205 -0.0003567699
