trained_models/ensemble_model/mlp_model_split3.pth (torch, 34018 bytes, 6 tensors)

fc1.weight f4 [64, 49]
000000 b5 20 ba 3f 30 70 af 3e 00 b3 81 be e4 17 01 3e
       1.4541231 0.3426528 -0.2533188 0.1260677
000010 28 de 37 3d b5 f5 52 3e d0 bc 85 3e 55 6f 98 be
       0.0448896 0.20601542 0.26120615 -0.2977244
000020 6e d0 a6 bc a0 b7 1e bf 19 87 ae bd 68 72 88 bc
       -0.020363059 -0.6199894 -0.085218616 -0.016656116
000030 df 21 64 3e 22 2f a4 3f 79 61 bc bd c6 1d f4 3d
       0.22278546 1.2826884 -0.09198279 0.11919741
000040 5b bb 10 3e cb b1 61 bb b0 3a 70 3e cb 67 02 bf
       0.1413397 -0.0034438248 0.23459888 -0.50939626
000050 0e b6 7b 3d 4d df b0 3e 1b 8d 87 3e a7 24 eb bd
       0.061452918 0.34545365 0.26474842 -0.114816
000060 f3 23 98 3c 19 f2 d1 3d 23 93 b6 be 06 46 1d 3e
       0.01857183 0.102512546 -0.3565913 0.15358743
000070 6f e1 42 be 9e 77 6f bd cf c6 2b bd d2 ef 04 be
       -0.19031309 -0.058463685 -0.041937646 -0.12982109
000080 a6 49 20 be c0 f6 9a be 5f d3 d0 be d2 0e d2 be
       -0.15653095 -0.3026638 -0.40786263 -0.41026932
000090 a8 38 0d 3e f7 7e 77 be f5 4e 37 3e 44 02 6d 3c
       0.13791144 -0.24169527 0.17901213 0.014465872
0000a0 71 00 9d be 2f 24 3d bf 42 ca 3b 3e d1 f1 7a 3e
       -0.306644 -0.73883337 0.18338874 0.24506308
0000b0 7b 21 af bc cb 8b 45 3e 04 97 b5 3d 95 b2 83 be
       -0.02137827 0.19291608 0.088666946 -0.25722185
0000c0 cf 72 2c 3e 83 d6 0b 3e 7e 54 42 3e 8e 28 d7 be
       0.16840671 0.13656048 0.18977544 -0.42023128
0000d0 61 c6 27 be da be 86 be eb 46 c3 3d d8 c1 4a 3e
       -0.1638427 -0.26317483 0.09535011 0.19800508
0000e0 88 55 5f be dc 37 10 3d 4c 2c 0e be 5c 97 92 bc
       -0.21809971 0.03520952 -0.13884085 -0.01789444
0000f0 c8 03 9a 3d 17 70 df 3e 2c bd 03 bf 53 a7 07 3e
       0.075202525 0.43640205 -0.5146053 0.13247423
000100 23 58 5e bd 50 2a 5b 3e a4 b9 bc bd 9d db b1 be
       -0.054283272 0.2140286 -0.09215096 -0.34737864
000110 2e c9 49 3e 9b 64 b3 3e 29 72 0e 3f 85 52 67 3d
       0.1970565 0.35037693 0.55642945 0.05647518
000120 b1 18 a8 be 97 0d 92 be 91 58 46 be 48 85 4f 3e
       -0.32831338 -0.28525993 -0.19369723 0.20265687
000130 d9 97 b9 bd 5d a7 b0 be 66 bf f4 3d 58 f0 80 be
       -0.09062166 -0.34502688 0.11950569 -0.25183368
000140 51 d7 4d bd ea 62 cd be a8 96 ae bc 9e 45 d5 be
       -0.05025417 -0.40114528 -0.021312073 -0.41654676
000150 a7 9a ba 3d 2b 07 20 3d 0f 91 69 3e 88 06 f3 3e
       0.09111529 0.039069336 0.22809242 0.4746592
000160 6a 9a cf 3d a6 de 70 bd 0a 5c ce 3e 1f d7 61 bd
       0.10136874 -0.058806084 0.40304595 -0.055136796
000170 8f 44 a6 3d 7b ec 0f be 73 56 9d bc e7 48 a6 bd
       0.08118545 -0.14055054 -0.019206261 -0.08119374
000180 7f e6 b0 be 5b ee b3 3c cf a2 44 bd fb 47 37 bc
       -0.34550855 0.021964243 -0.04800683 -0.011186595
000190 19 6f 31 bd 46 55 49 bc e4 15 ff bd 88 37 7a 3d
       -0.04331884 -0.012288397 -0.12455347 0.061088115
0001a0 1b 9d 3b ba 61 c8 13 bd 36 a8 c5 bd 85 92 6e bd
       -0.00071568944 -0.036079768 -0.09651224 -0.0582452
0001b0 bf 55 d1 3d 7b e7 12 be 86 2d 88 3d 03 60 ef 3c
       0.10221433 -0.14346115 0.06649308 0.029220587
0001c0 19 89 6a ba 6e 43 bb 3c b8 0e 93 3c 84 ee e9 3c
       -0.0008946821 0.022859301 0.017951354 0.028556116
0001d0 d1 26 b3 3d ed 4e 08 bb d7 d2 a3 3c ec 61 fd 3d
       0.08747638 -0.0020798997 0.019997997 0.12372193
0001e0 1e 50 ee bd fa f8 06 be ba ae 85 bd 51 59 1d bd
       -0.11636375 -0.13180915 -0.06527467 -0.038415257
0001f0 68 c7 c8 bd b5 24 15 3d 20 37 f1 bd f2 9c e9 bd
       -0.09803659 0.03641196 -0.117780924 -0.11406888
000200 4e df 13 3e b1 0a cf 3d a0 86 5c 3d 19 a7 07 3e
       0.14440653 0.10109461 0.053839326 0.13247336
000210 2d 0c 4e 3d ef 9b 13 be df 50 a8 bd 5b 29 04 be
       0.05030458 -0.14414953 -0.0821855 -0.12906401
000220 32 8b c2 bd 8f c7 bb bd b9 26 de 3d 3d cc 08 3e
       -0.09499206 -0.09168922 0.108472295 0.1335916
000230 42 08 98 3d b5 f0 b2 bd cd a8 68 3d 5c 0c 8f 3d
       0.0742345 -0.087373175 0.056801606 0.06984779
000240 4c 7d 16 3d 0f bb e6 bd a8 be 00 be 33 08 95 3e
       0.036740586 -0.11266147 -0.1257273 0.29107818
000250 18 8f 70 be b3 d7 d8 bd 3c a8 43 3e b8 0d a7 3c
       -0.23492086 -0.10588016 0.19107145 0.020392284
000260 d3 32 8f 3e a3 db 9e 3e 6a 99 53 be d0 73 98 3e
       0.27968463 0.31026945 -0.20663992 0.29775858
000270 29 3c 99 3c 9e d0 c3 bc 63 23 dd 3d e5 21 61 3d
       0.018705444 -0.023903187 0.10797765 0.054963965
000280 6e 38 fa 3d b1 bc 10 be e6 25 c5 3d 16 b3 3f 3e
       0.12217794 -0.1413448 0.09626369 0.1872066
000290 d7 ab 40 be 1b e6 3d 3e 94 d5 06 be be ea 3a be
       -0.18815552 0.1854481 -0.13167411 -0.1825361
0002a0 e2 4b d9 bb ab a7 42 3e 09 c3 76 bd 22 63 59 3d
       -0.0066313604 0.19009273 -0.060244594 0.053073056
0002b0 49 b6 1a 3d e4 7e a0 bd e2 93 b9 be b0 28 8a 3e
       0.037771497 -0.078367025 -0.36245638 0.26984167
0002c0 29 03 b5 bd 79 2c 2c 3d 59 b2 23 bc 8b 41 9b be
       -0.088384934 0.0420346 -0.009991252 -0.30323443
0002d0 77 cf 48 be 80 0e 6b be b2 ac de 3d dd cb a5 be
       -0.19610392 -0.2295475 0.10872783 -0.32382098
0002e0 0f 70 cd bd 3e 62 87 be 4e 4a 6f 3e 1b 53 05 bf
       -0.10031139 -0.2644214 0.23368189 -0.52079934
0002f0 3f 11 c1 3d 23 12 ab 3c a0 7c 2f be 7a cc 08 3d
       0.094271176 0.020882672 -0.17137384 0.03339813
000300 8c c1 15 3d 20 b7 73 be 11 df e6 bc c2 d9 98 bb
       0.036561534 -0.23800325 -0.028182538 -0.0046646306
000310 60 21 6a 3e 4f 28 a3 3e 88 fc b4 be cb 28 ac 3e
       0.22864294 0.3186669 -0.35348916 0.33624873
000320 bb 7d 2d 3e 6c 2c d5 3e 97 44 b4 be c9 47 07 3f
       0.16942494 0.41635454 -0.3520858 0.5284391
000330 c2 72 f3 bd 9f 5f 94 be 1e 16 1c be dd 5a 8f bd
       -0.11887123 -0.28979203 -0.15242812 -0.06999753
000340 c8 a5 00 be 94 f8 95 be 5b 87 b8 be e6 e4 e8 be
       -0.1256324 -0.29291213 -0.36040768 -0.45487136
000350 88 60 f5 be e3 1b 07 bf 99 52 19 3e 82 ad a4 bd
       -0.4792521 -0.52776927 0.14972915 -0.080409065
000360 f1 7f 7b be c4 77 72 be ea 2d 04 be 55 95 99 be
       -0.24560525 -0.236785 -0.1290814 -0.29996744
000370 92 e0 f5 bc 7a c6 a6 3d a9 ca 42 bc f6 a7 1a 3e
       -0.03001431 0.08143325 -0.011889138 0.15103135
000380 00 4f 71 bd 4a 4f 27 3e f4 c3 d5 3c 4e fe 02 3e
       -0.05891323 0.1633884 0.026094414 0.12792322
000390 c4 1e 8c be 1f 56 26 3e 74 75 7f 3e 7e a7 46 3f
       -0.27367222 0.1624379 0.24947149 0.7759932
0003a0 fc a2 e7 3d 0c 60 8d 3e aa 7a 29 3f 69 a2 52 be
       0.11310384 0.2761234 0.66202796 -0.20569767
0003b0 a8 ba 45 3e 97 02 2f be 8c 11 2a 3e 46 dd d3 3b
       0.19309485 -0.17090832 0.16608256 0.006465587
0003c0 b7 1e b8 3d 46 7a d7 3d d9 95 9b bc 78 a8 61 3d
       0.089902334 0.10521369 -0.018992351 0.055092305
0003d0 5a e3 97 bc 56 8c b8 3e dc 65 5b 3c d8 35 6b 3d
       -0.018541027 0.36044568 0.013390984 0.057424396
0003e0 54 32 01 be 38 e8 56 bd 13 f2 92 bd 6b 5c 1e be
       -0.12616855 -0.052467555 -0.07175078 -0.15464942
0003f0 7b 62 fd 3d 21 8c db bd 5d e5 22 bd f0 1d 42 be
       0.12372299 -0.10720087 -0.03976952 -0.18956733

fc1.bias f4 [64]
000000 c3 e9 a1 be f6 ad 5a be e2 cc b7 bd 34 bb c6 3d
       -0.3162366 -0.21355423 -0.08974625 0.09703675
000010 e8 c5 88 3e 53 c5 09 3e 49 ab b9 bb 6e 23 c6 be
       0.2671349 0.1345418 -0.0056661707 -0.38698906
000020 23 06 0a 3e 6c 09 af 3e 89 ec 03 be cc 16 e8 be
       0.13478903 0.34186876 -0.128832 -0.45329893
000030 97 43 c5 3d 3e f1 b3 3e 4d 91 06 3e 45 98 39 bd
       0.09632032 0.3514499 0.13141365 -0.04531123
000040 99 56 ca bd 47 6e 93 3d fb a2 88 bd ba 6e 64 be
       -0.098797984 0.07198768 -0.06671711 -0.22307864
000050 b8 f8 0d 3e 8b 26 a3 3c 64 f4 d0 bc 20 82 28 bf
       0.1386441 0.01991584 -0.02550716 -0.65823555
000060 92 ec d9 3d ea 6e 89 3c 94 f0 d1 3d 4c a1 58 bd
       0.10640825 0.01677652 0.10250965 -0.0528882
000070 51 20 9c be 06 69 9e bd 5e b3 51 bc 3d df 0b 3d
       -0.30493405 -0.077348754 -0.012799112 0.034148443
000080 2e c0 a5 3c c8 a4 51 3d cd b2 d7 bd 3f bb 19 bf
       0.02023324 0.05118254 -0.105321504 -0.6005134
000090 c6 dd e3 3d 4c 07 0b be da 3f 13 3e ea 50 09 3e
       0.11126284 -0.13577002 0.14379826 0.13409773
0000a0 d5 ca 4b bc 84 41 eb bd a6 a1 4f be b1 fb d9 bd
       -0.012438496 -0.114871055 -0.20276508 -0.106437095
0000b0 2c 7b bb bd 9e 4c da bd 92 06 29 3e 72 4d 4e be
       -0.091543525 -0.10659145 0.16506413 -0.2014673
0000c0 0e 06 11 3e 80 86 9a 3e d0 2b 52 be 7d fe a0 bd
       0.14162466 0.3018074 -0.20524526 -0.0786104
0000d0 9d 1d 58 bc 25 db 96 3c 22 82 ac 3d b1 1c e8 3c
       -0.013190654 0.018415043 0.08423258 0.028333994
0000e0 b5 88 91 bd 5a 85 25 bd c9 45 d4 3d ae 0d 65 bd
       -0.07106153 -0.040410377 0.10364873 -0.05592125
0000f0 1f 22 cc 3d 25 ab eb 3e 13 8a ad bc 4f 7d 2e bc
       0.099674456 0.4602901 -0.021184003 -0.010649993

fc2.weight f4 [64, 64]
000000 32 83 b1 3e 81 d7 ae be 3b 7c 08 bc 95 d0 8e 3d
       0.34670407 -0.3414879 -0.0083304 0.069733776
000010 24 36 19 3f 85 06 f0 3d 19 11 25 3f 32 39 81 3d
       0.5984824 0.117199935 0.64479214 0.06309737
000020 84 ea 85 3e 82 2a 2b 3e 5e 51 1a 3e 51 e2 f2 be
       0.26155484 0.16715434 0.15070102 -0.4743829
000030 aa b2 87 3e 35 ae 5e 3b 46 16 72 3e 50 8b bc 3c
       0.26503497 0.0033978347 0.23641309 0.023015648
000040 ee a0 1f 3e ff 08 12 3f 98 eb 98 be fa 17 38 3e
       0.15588734 0.57044977 -0.29867244 0.17977896
000050 e7 0e 35 3e cd ef 84 3e 03 30 81 bc c1 52 c3 3e
       0.17681466 0.25964203 -0.015769964 0.38149074
000060 56 38 5e be ef 94 01 3d 04 c5 41 3e a8 fb 4a 3f
       -0.21701178 0.031636175 0.18922812 0.79290247
000070 c8 50 97 be 40 a2 69 3d 75 3e 82 3f 0a 10 ca bd
       -0.2955382 0.0570395 1.017531 -0.098663405
000080 c0 e0 16 be a9 3d c6 be 8a 80 88 3d 00 1e 39 3e
       -0.14734173 -0.38718918 0.06665142 0.1807785
000090 f6 4a 4e 3e f2 ae 88 3e 8e 03 5f 3f b2 51 c7 3e
       0.20145783 0.26695973 0.871148 0.38929516
0000a0 bb 89 82 3c 63 64 d3 bd 65 5c 47 3e 7a a8 83 3e
       0.015934816 -0.103218816 0.1946884 0.25714475
0000b0 e7 a7 12 bf 01 65 9f be 13 3f 50 3e b4 24 32 bd
       -0.5728745 -0.31131747 0.20336561 -0.043492034
0000c0 47 1a 96 3d 85 20 7b 3e 30 15 6f be 76 45 d8 3d
       0.07329231 0.24524124 -0.23347926 0.105601236
0000d0 77 c1 fe 3e 18 f4 27 3e be 1f 67 3d 9a 28 97 3d
       0.49756977 0.16401708 0.056426756 0.07380791
0000e0 5e eb e8 be 07 1c 28 bd d5 26 64 be a8 90 df bd
       -0.4549207 -0.041042354 -0.22280438 -0.10916263
0000f0 d8 4e db 3d a9 ca 9a 3e cd f9 f6 3e 7d f4 3f 3e
       0.107083976 0.30232742 0.48237458 0.18745609
000100 a3 88 de bd b1 0f c1 3d c1 a0 bc 3d 1b 8f b9 3c
       -0.10865905 0.09426821 0.09210349 0.022651246
000110 20 88 ce 3d 37 43 01 be b0 f9 12 bd 8b 35 8e bb
       0.100845575 -0.12623297 -0.03588265 -0.004339879
000120 a2 86 74 3c 87 17 00 be 46 65 b5 3d 62 73 35 3d
       0.014924677 -0.12508975 0.08857207 0.04429949
000130 c8 70 ba bd 06 df 9b bd 1d b3 da 3d f0 e3 1b 3d
       -0.091035426 -0.07610898 0.106786944 0.038059175
000140 0e 96 ce 3d 90 e5 04 be 7b b5 63 bc b3 da 19 be
       0.100872144 -0.12978196 -0.013898249 -0.15024833
000150 a6 88 19 bd df 5d 10 3d c9 1d f2 bc bf 83 bc 3d
       -0.037483834 0.035245772 -0.029555218 0.09204816
000160 f4 c4 15 3d 6d da b2 3d 82 4d 02 be 5f 66 0b 3e
       0.036564782 0.08733068 -0.1272488 0.1361327
000170 71 f4 d6 bd cd 54 41 3c 2d 43 14 be 52 db d3 bd
       -0.10495842 0.011800003 -0.1447875 -0.103445664
000180 37 d8 96 3c 75 5d 8e bd e5 ee dd 3d 2b 03 94 bd
       0.018413646 -0.06951419 0.10836581 -0.07227167
000190 8d 68 2e 3d e6 92 08 bd ca 16 37 3d a1 06 55 3d
       0.042580176 -0.03334322 0.044699468 0.052008275
0001a0 5e 1b 01 bd 9a d3 e0 3d aa a6 5f bd f7 3a ab bd
       -0.03152024 0.1097786 -0.054602303 -0.08360856
0001b0 ab b8 d1 bc 20 ff 80 bd a3 f7 46 3d 39 fa 69 bd
       -0.025600752 -0.06298661 0.04857601 -0.057123397
0001c0 80 70 fd bc 1f 3d 94 bd 6c ea 8c bd c8 1d 5f 3d
       -0.030937433 -0.072382204 -0.0688065 0.05447176
0001d0 aa cf e1 3d 9c bb ad 3d ec 7f 61 3c da 53 10 3e
       0.11025937 0.08483049 0.013763409 0.14094487
0001e0 39 04 f4 bc 39 e3 10 bd 43 bc e4 3d 74 8d 9b bd
       -0.02978717 -0.035372946 0.111687206 -0.075953394
0001f0 5a 67 9b bc 2a 25 ee bd ea 35 14 3e 69 e9 c0 3c
       -0.01897018 -0.11628182 0.14473692 0.023548799
000200 88 16 dc 3c bb a2 52 bd 13 02 91 bd 38 e4 3f be
       0.026866212 -0.051424723 -0.07080474 -0.18739402
000210 ff 2d 35 3e be 96 b2 bd fb 92 5c 3e c2 06 53 bd
       0.17693327 -0.08720158 0.21540444 -0.051520117
000220 6b 00 8b 3c 9f 12 4e 3e 17 b2 f7 bd a6 23 7c 3d
       0.016967973 0.20124291 -0.12094515 0.061557434
000230 67 4d 3e 3e f3 d6 cf 3e b6 81 5d 3e 98 ca 91 3d
       0.18584214 0.4059368 0.21631512 0.0711872
000240 f1 4f f1 bd 89 3c 9f 3d a9 83 73 3d 70 95 45 be
       -0.11782826 0.07775218 0.059451733 -0.19295287
000250 a6 aa 72 3e 6a 71 cf 3d c7 1c cf bd d5 fd 21 3e
       0.2369791 0.10129054 -0.10112911 0.15819485
000260 ae 99 88 3d 64 31 bc bc 1d 72 53 3d 05 28 56 3e
       0.06669937 -0.02297277 0.0516225 0.20913704
000270 97 56 08 3e fb 99 8a bc 81 b0 b5 3e 1a 7c 35 3d
       0.13314281 -0.016919127 0.35486224 0.044307806
000280 18 09 91 bd b5 c6 95 3e 22 0c 8f bd 37 6f 6b be
       -0.070818126 0.29253164 -0.06984736 -0.22991644
000290 16 1b 13 be 01 ad 54 3e cb df e4 3e ba 6c a7 3d
       -0.14365801 0.20769121 0.4470199 0.08175035
0002a0 c0 eb 88 bd 6d fe 63 3d 84 16 74 bd 32 cf 62 be
       -0.06685591 0.05566256 -0.059591785 -0.22149351
0002b0 c4 43 27 be 94 d5 57 bd 99 11 1c 3d 0a 3a af be
       -0.16334444 -0.05269392 0.03810272 -0.34223968
0002c0 88 16 ec bd 89 9f ef 3b d5 02 77 bd fe 63 2f 3d
       -0.11527735 0.0073127192 -0.060305435 0.04281997
0002d0 ef e0 4d 3e 89 6e cf 3d 14 18 0a 3d 65 83 55 bd
       0.20105337 0.10128505 0.03371437 -0.05212726
0002e0 b3 29 9c be 52 f1 7f bc 92 cb 0e be 1c cb 1a bc
       -0.30500564 -0.0156215 -0.13944843 -0.009447839
0002f0 6c e6 7e bc 07 05 be 3e fc 46 e6 3d fb 6d 96 bd
       -0.015557867 0.3711321 0.11244008 -0.07345196
000300 27 cd 6b 3c 0c 11 ab 3d 82 ec b5 3d d2 50 41 ba
       0.014392174 0.08352861 0.08883001 -0.0007374409
000310 76 dd 55 3d fc 63 96 3d 7a 9f 50 bd d5 23 d4 3d
       0.052213155 0.07343289 -0.05093334 0.10358397
000320 ee db df 3d 49 30 10 3e 81 68 c8 3d 81 b1 87 3b
       0.1093062 0.1408092 0.097855575 0.004141033
000330 8d f2 46 bd 52 9c e4 bd dd e8 08 3e 78 9f d9 3d
       -0.04857116 -0.11162628 0.1337008 0.106261194
000340 9a f3 78 bd cd 0f 4b bd 63 32 fb bc c1 46 6c bd
       -0.06077919 -0.049575616 -0.030663675 -0.057684664
000350 51 eb f0 bd 4a 14 12 bd 81 cc ea bb b0 fb 92 bd
       -0.11763633 -0.03566388 -0.007165492 -0.07176912
000360 f5 57 60 3d 07 81 a5 bd a1 cf 47 3d 5a fe fb 3c
       0.054771382 -0.08081251 0.048781995 0.030760933
000370 07 d4 0c be eb 65 da bd 85 ff 69 bc b7 15 c3 bd
       -0.13752757 -0.106639706 -0.014282112 -0.09525626
000380 ce ae 9e 3b 51 92 f3 bd c4 ff 63 bd 0c 21 d0 bd
       0.0048426157 -0.11893142 -0.05566384 -0.10162553
000390 17 a8 ed 3d bf 0b 96 bd cc c1 31 bd f0 59 a9 bd
       0.11604326 -0.07326459 -0.04339771 -0.08269107
0003a0 87 b5 be 3c 9b 89 3a bd 22 9b 0c 3e f3 1e 9d bd
       0.023279918 -0.045541387 0.13731053 -0.07671919
0003b0 05 56 6f 3d 9f 44 90 3d c4 81 bb bd 64 91 a2 bd
       0.058431644 0.070443384 -0.0915561 -0.07937887
0003c0 04 6e b3 3d 70 6a 6f bd e8 f1 c6 bd 85 8f cd b9
       0.08761218 -0.058451116 -0.09714109 -0.00039207577
0003d0 b3 7d b9 bd d8 39 82 bc 2a 8d db 3c 36 1b b0 3d
       -0.09057178 -0.015896723 0.02680071 0.0859894
0003e0 af 2d 61 bd 84 05 4a 3b 7e 29 54 3c ef f5 d8 bc
       -0.054975208 0.0030826041 0.012949346 -0.026484458
0003f0 ac a3 c1 bd f5 c9 38 3d e6 fd 60 3d da e9 5c 3d
       -0.09455046 0.045114476 0.054929636 0.053933956

fc2.bias f4 [64]
000000 05 7f 33 3e b6 d6 da 3c 4b 20 f9 3d c1 ad 95 3d
       0.17528923 0.02671371 0.121643625 0.073085316
000010 50 2b c3 3e 20 7a 81 3d 34 5a 54 be 91 d0 fa 3c
       0.38118982 0.063221216 -0.20737535 0.03061703
000020 36 3c c0 bb 92 9a c7 3d c3 fa 39 bc f0 24 16 bd
       -0.0058665527 0.09746279 -0.01135129 -0.03665632
000030 a6 ac 45 bd 0d 03 4c 3e d2 ec 5b 3e 74 91 03 3e
       -0.048260354 0.19923039 0.21477059 0.12848455
000040 63 ad c4 3d 95 15 c2 3d 1a b8 19 3e d8 2e a3 bd
       0.096033834 0.09476773 0.15011635 -0.07967919
000050 a7 ae fd bc fa 5f 91 3d 8f 70 3e be 15 ea a3 bd
       -0.03096707 0.07098384 -0.18597625 -0.08003632
000060 65 dd d1 bd ad 88 1d 3e e5 16 a5 3d 58 92 14 be
       -0.10247306 0.15384169 0.080610074 -0.1450895
000070 ff 53 14 3c ba 91 85 bd cf 7d 0f be db 31 12 3e
       0.009053229 -0.06521936 -0.14012836 0.14276831
000080 16 62 63 3e 69 23 f1 bd 2e 63 8a 3e 4d f9 56 3e
       0.22205386 -0.11774332 0.27028793 0.20993538
000090 9e da 7f 3d bc 99 21 bd d5 5f d3 3d b9 7a 93 bb
       0.06246435 -0.039453253 0.10321013 -0.0045007137
0000a0 05 a2 a5 3d d7 3a 13 3e 3f d7 cb 3d 07 dc 19 3e
       0.080875434 0.14377914 0.09953164 0.1502534
0000b0 94 2d 84 3d d2 a1 a8 3c d0 5b 48 3e ac 9b 80 3e
       0.06454006 0.020584974 0.19566274 0.25118768
0000c0 03 e2 b1 3d 8a 70 7f bc 73 0a 05 bd db 27 6b 3e
       0.086856864 -0.015590796 -0.03248067 0.22964422
0000d0 17 11 93 3e fd e3 ef 3c 07 b7 96 bd a3 90 63 bd
       0.28723976 0.029283518 -0.073591284 -0.05555786
0000e0 58 7e f9 bd 83 08 9a bd 1c 4f ac 3e 38 a4 84 3d
       -0.12182301 -0.07521155 0.33654106 0.06476635
0000f0 ce 69 c9 ba 60 1f 9c bd 1f a8 04 be a9 f1 18 3d
       -0.0015366615 -0.07623172 -0.12954758 0.03733984

fc3.weight f4 [7, 64]
000000 f1 6b 61 3f 4f f1 fd bd 48 5a 02 3f 32 8c 41 3e
       0.8805533 -0.123995416 0.5091901 0.18901137
000010 88 80 0c 3f b9 88 b2 3e 72 fe 04 bf 9b d3 d5 be
       0.54883623 0.34869936 -0.5195075 -0.41763005
000020 5f 7d 2e 3e a1 7b d4 3e b7 9d 9b 3d 6d ec a1 bd
       0.17040013 0.4150057 0.07598441 -0.07906423
000030 df 6f 59 3f 12 3c 0e bf 8e c0 07 be 30 cf aa 3e
       0.84936327 -0.5556041 -0.13257048 0.33361197
000040 c3 17 1f 3e 7b 83 0b 3e 64 b5 0b 3f 4f 97 a9 3e
       0.15536408 0.13624375 0.54573655 0.33123252
000050 39 f7 76 3e 93 d4 24 bf ae be 91 bc 62 f3 b7 3e
       0.24117745 -0.6438686 -0.017791118 0.35927874
000060 61 c7 0e 3c 8a 2b 9c 3d bf 0e 9f bd 9d c9 1c bd
       0.008714528 0.07625492 -0.077664845 -0.03827821
000070 43 b1 a3 bd 3b 82 2e bf d9 50 4b 3f be d1 25 3e
       -0.07992794 -0.68167466 0.7942024 0.16193292
000080 12 9f 2e be b8 4a 18 be 60 08 14 bf c5 51 87 3e
       -0.17052868 -0.14872253 -0.5782528 0.26429573
000090 b0 96 29 3f 53 95 43 be 4c f3 df be a9 8b 43 3f
       0.66245556 -0.19099931 -0.43740308 0.7638498
0000a0 e7 09 d7 3e 0a 9d dc 3d 57 0d d1 be 85 b0 d3 3e
       0.41999742 0.1077214 -0.4083049 0.4134561
0000b0 0f 62 e5 3d c0 8f 52 bc 9a 17 26 3e 37 d2 fb 3d
       0.11200344 -0.0128516555 0.16219941 0.12295955
0000c0 90 af 47 3f 01 cd 0c 3e e4 97 12 3e 70 f2 24 3f
       0.7800226 0.13750078 0.14315754 0.6443243
0000d0 85 63 96 3e dd f8 8c be a0 78 87 be e8 8e ed 3d
       0.29372802 -0.27533618 -0.26459217 0.11599523
0000e0 9c 4c 23 3d e5 69 2c 3d b5 fa 37 bf 34 e1 4a 3e
       0.039867982 0.042093176 -0.71866924 0.1981247
0000f0 15 be 26 3f 43 e3 1e 3d 5d 2f b4 3d af 74 22 bd
       0.6513379 0.038790952 0.08798096 -0.03966206
000100 bf 76 aa be e9 5a 07 3e 6d c1 14 bf f4 ed c8 bc
       -0.3329372 0.13218273 -0.58107644 -0.024527527
000110 b2 86 87 3e 4f a1 09 3f 4c 6a b4 3e fe ee c3 bd
       0.26469952 0.5376176 0.35237348 -0.095670685
000120 62 1e 2d 3c 24 fa 64 3e f5 1d f8 3d 14 1c f9 bc
       0.010566326 0.22361046 0.12115089 -0.030408897
000130 e6 2e 88 be 99 be 91 3e 93 01 03 3d 6b 57 bf be
       -0.2659828 0.28465727 0.031983923 -0.37371382
000140 af 73 56 be 63 82 47 bf f4 c8 85 3f 6b fd 9a bd
       -0.20942567 -0.7793333 1.0451951 -0.07567867
000150 68 2e 12 be 53 1d a9 bd c5 5d cd bc b5 a0 db be
       -0.14275515 -0.08257546 -0.025069127 -0.42896047
000160 d3 a9 96 bd e1 c4 70 bf 64 f3 f0 bd 78 5a db 3d
       -0.0735661 -0.94050413 -0.11765173 0.10710615
000170 7c 85 bb bc c3 97 96 be 36 4e 57 3f 2d 41 4d bf
       -0.022890799 -0.2941266 0.84103715 -0.80177575
000180 93 f3 91 be 0e 6f fc bd 02 9a 3e 3e fd 7a e6 3e
       -0.28506145 -0.123258695 0.18613437 0.45015708
000190 fc 3e 72 3f 5d e9 9d bd a6 1c b0 bd 1c 64 4c bf
       0.94627357 -0.07710526 -0.08599214 -0.79840255
0001a0 da e1 8b bc 01 39 86 bf be 36 65 be 8a ba 90 3e
       -0.017075468 -1.0486146 -0.22384164 0.28267318
0001b0 e6 2b 7c 3d 08 d9 de 3d a9 87 16 bf 5f ea 8c be
       0.061565302 0.10881239 -0.5880075 -0.2752256
0001c0 af 17 3d bd eb a1 1c 3e 19 32 03 bc c2 a4 55 bf
       -0.046165165 0.15296142 -0.00800755 -0.83454525
0001d0 10 3b 26 bf a2 4c 28 bc ba 69 2f 3e a7 a9 a2 3c
       -0.6493387 -0.010272177 0.17130175 0.019856287
0001e0 46 fa ac 3d c2 87 c2 bd 58 d4 c8 be c8 b0 2e be
       0.08446173 -0.0949855 -0.39224505 -0.17059624
0001f0 2f 17 ae be 45 f5 d6 bd 76 22 9b bd ad 59 ab 3c
       -0.34002063 -0.10496 -0.07574932 0.020916784
000200 40 72 50 bf 1f a5 7b 3b fe 31 d0 3e 0c 39 84 3d
       -0.8142433 0.003839798 0.4066314 0.06456193
000210 4d 28 1e bf 17 6a 9b be a5 37 51 bd 72 8e c9 bd
       -0.61780244 -0.30354378 -0.051078457 -0.098416224
000220 97 69 b7 3c 74 fa 47 bf f4 bc 39 3b 95 57 35 3c
       0.022389216 -0.78116536 0.0028341385 0.011068244
000230 6a ec fc 3c ae 44 4b be 6f 4f 52 bf db 3a 16 3f
       0.03087445 -0.19850418 -0.82152456 0.58683556
000240 97 1c fa 3c eb 6e 94 3e 70 f6 3c bf 15 d4 94 3e
       0.03053121 0.28990874 -0.73813534 0.29068056
000250 fe b6 16 3e 35 37 1c 3e 03 28 88 bb 31 b4 8a 3f
       0.14718243 0.15255435 -0.0041551604 1.083624
000260 2a 83 17 bd df db 52 3e 1e f9 a2 bc d2 72 d4 bd
       -0.036990322 0.20591687 -0.019894179 -0.10373463
000270 a8 fb ee bd 2b 9c 05 3f 2c af c2 be ba 90 23 bd
       -0.11669093 0.5219142 -0.3802427 -0.039932944
000280 ef a9 c8 be 21 2a cd 3c 91 47 b4 be 41 b7 0d bf
       -0.3919215 0.025044503 -0.3521085 -0.5535775
000290 30 68 3e bf 41 01 08 be ac 47 dd be 84 e4 d4 be
       -0.7437773 -0.13281728 -0.43218744 -0.41580594
0002a0 74 2d 23 3e 68 50 5b 3f 83 68 8c 3f 0d 92 9e bd
       0.15935308 0.85669565 1.0969394 -0.07742701
0002b0 59 1b 59 3d 0b 20 a3 bd 80 63 9c 3d 47 03 cd be
       0.053004596 -0.07965096 0.076361656 -0.40041563
0002c0 83 ac 3e be 9f 39 32 be c0 36 3b 3d bf d1 60 bf
       -0.18620495 -0.17404793 0.04570651 -0.8782005
0002d0 32 80 e8 3d 37 cd e7 3d 25 bf d0 bd 20 c0 3e 3d
       0.11352576 0.113184385 -0.10192708 0.046569943
0002e0 f2 39 e3 3d 6b 0f 44 3d 0a 2c 11 3f 78 fa 09 3e
       0.110950366 0.047866266 0.56707823 0.13474452
0002f0 5c 1f fa be f7 ec b8 3d e0 5c f3 3d d5 19 d1 3b
       -0.4885205 0.090295725 0.11882949 0.0063812532
000300 4f 87 d6 3f 8d 9b 43 3e c9 6e 18 3f d1 7c 8e 3d
       1.6760043 0.19102307 0.59544045 0.069574006
000310 17 fa 1e bf 8f c1 0e bf 7e d0 f3 bd de 4e 43 3f
       -0.62100357 -0.55764097 -0.11905001 0.76292217
000320 66 7c 56 bd ac b2 c3 3e a6 10 26 be df 42 2a 3e
       -0.05236473 0.38222253 -0.16217288 0.16627072
000330 d9 ac ef be 0d ac 4e 3f 42 2c e2 3d 26 d4 1a bf
       -0.4681156 0.8073128 0.11043598 -0.6047996
000340 e7 fa b8 be 46 26 82 3e d5 dd f7 bd c6 f7 dc be
       -0.36128923 0.25419825 -0.12102858 -0.43157786
000350 04 8f 0d bf 4c ea 9c 3e 73 d3 79 3d 31 2d 7a bf
       -0.5529635 0.30647504 0.06099267 -0.97725207
000360 f8 9b 28 bd 0f d4 e7 3d d9 8d 97 be 57 f6 f9 bd
       -0.04116437 0.11319744 -0.2960041 -0.12205189
000370 c7 63 52 bc 6b cf 79 3f ac a6 8f bf a1 b5 3f 3e
       -0.012841172 0.9758212 -1.1222739 0.1872163
000380 0c f1 9c be 8f 03 e1 bd cc c3 cc 3e 9b 09 d8 bd
       -0.30652654 -0.10987007 0.3999313 -0.10548707
000390 57 c5 32 bf 05 19 10 3e f7 0d 71 3e 68 fe e6 3e
       -0.69832367 0.14072044 0.23540483 0.45115972
0003a0 df f6 53 bf f3 eb 13 3f a5 6b 41 bf b4 76 3a bf
       -0.8279857 0.57781905 -0.7555488 -0.72837377
0003b0 b2 60 65 bc a9 25 b3 bd 7b 9a 65 3f cd a4 56 3e
       -0.014000105 -0.087474175 0.89688843 0.20961304
0003c0 75 0c 01 bf 8b 10 de bd 97 47 0d be a7 67 7d 3f
       -0.5040963 -0.10842999 -0.1379684 0.98986286
0003d0 ef fc 6f be bb 3e 21 3f f6 56 d3 3d ca b3 07 3d
       -0.2343633 0.62986344 0.10319321 0.033130445
0003e0 4a 22 8d bd fd 4f 99 bc 93 2a 3e 3d dd 91 70 bf
       -0.06891306 -0.0187149 0.04642732 -0.9397257
0003f0 28 39 0f 3e d7 37 42 3d 47 a7 85 3d be f6 50 3e
       0.13986647 0.047416534 0.06526046 0.20406625

fc3.bias f4 [7]
000000 6b ba 30 3f 7f b9 01 bf 90 7e b2 be d0 a9 19 3e
       0.6903445 -0.5067367 -0.34862185 0.15006185
000010 6a 1e 09 bf 83 0a b7 3e be af 97 bd
       -0.53562033 0.35750207 -0.07406567
