trained_models/ensemble_model/mlp_model_split2.pth (torch, 34018 bytes, 6 tensors)

fc1.weight f4 [64, 49]
0	0xbf2783ec	-0.6543567
1	0x3e24afc6	0.16082677
2	0xbe405797	-0.18783413
3	0xbde098c7	-0.1096664
4	0xbd08dc89	-0.033413444
5	0xbe1ff0e6	-0.15619239
6	0xbdc75fac	-0.09735045
7	0x3e07dfd3	0.13268976
8	0xbe420a5d	-0.18949266
9	0xbcbc0ea7	-0.022956206
10	0x3e2e501e	0.1702275
11	0x3da023b9	0.078193136
12	0xbe34bdb9	-0.17650498
13	0x3dc3c21a	0.09558506
14	0x3d36ee07	0.044660594
15	0x3cc8424f	0.02444568
16	0xbd6cb04a	-0.05778531
17	0x3e6a4289	0.22876944
18	0x3de954a9	0.11393101
19	0xbd4e8e64	-0.050428763
20	0xbdc40add	-0.095723845
21	0xbdf7206d	-0.120667316
22	0xbde8f01a	-0.11373921
23	0x3ce8f312	0.028436217
24	0x3d9f6aae	0.077840194
25	0x3dd722b3	0.10504665
26	0x3f0befb3	0.54662627
27	0x3e9e6f32	0.3094421
28	0x3ecba9db	0.39778027
29	0xbecc4679	-0.39897516
30	0x3f07a700	0.52989197
31	0x3ce03647	0.027369631
32	0xbd90afd7	-0.07064789
33	0xbebf2d15	-0.37339082
34	0x3ebee752	0.37285858
35	0xbf293328	-0.66093683
36	0x3e031bf1	0.12803628
37	0xbf36a62a	-0.71347296
38	0x3cb60108	0.022217289
39	0xbda282ce	-0.07935105
40	0x3ec9c8cb	0.39411005
41	0x3f07f405	0.5310672
42	0xbe03db05	-0.12876518
43	0x3b7d6be6	0.0038669049
44	0xbde9876f	-0.11402785
45	0xbe4240b7	-0.18969999
46	0x3da2931e	0.079382166
47	0x3e099a32	0.13437727
48	0xbd9a96cf	-0.07548296
49	0xbeb54045	-0.35400596
50	0xbdf04a2a	-0.11732896
51	0xbe6c8321	-0.23096897
52	0xbd7a364f	-0.06108695
53	0x3dfd3672	0.123639
54	0x3cd91f3a	0.026504148
55	0xbea0476d	-0.31304494
56	0x3e90e7e2	0.28301913
57	0xbd874ec6	-0.06606822
58	0x3f1fad72	0.6237403
59	0x3eade965	0.33967128
60	0x3e2b6eee	0.16741535
61	0xbd29fc64	-0.041500464
62	0xbf4f023c	-0.80862784
63	0x3e781e6d	0.24230357
64	0x3dea7cdd	0.11449597
65	0x3e725edd	0.23669
66	0xbd82e344	-0.06391004
67	0xbe83f4ce	-0.2577271
68	0x3e0ae714	0.13564712
69	0x3e29759d	0.16548772
70	0xbedc14a0	-0.42984486
71	0xbedc8435	-0.43069616
72	0xbdece310	-0.11566746
73	0xbd866b67	-0.06563454
74	0xbdc5df9a	-0.09661789
75	0x3e0f891d	0.14017148
76	0xbd7fc31b	-0.062441926
77	0x3d89f106	0.06735425
78	0xbd9f6fd4	-0.077850014
79	0xbe2ee024	-0.1707769
80	0xbc560182	-0.013061883
81	0xbf0a9c64	-0.54144883
82	0xbd5fda40	-0.0546515
83	0x3e005f27	0.12536298
84	0x3e730e65	0.2373596
85	0x3dd09e41	0.101864345
86	0x3e43614e	0.19080088
87	0xbcddea10	-0.027089149
88	0x3e577833	0.21041946
89	0xbd8ac6ad	-0.06776176
90	0x3ee500bb	0.4472712
91	0xbe1874b3	-0.14888267
92	0xbd524fcb	-0.051345628
93	0x3da7d356	0.08194606
94	0xbe38bec7	-0.18041526
95	0xbb8871ac	-0.0041639414
96	0x3da7fee2	0.08202912
97	0xbe3c1ad6	-0.18369612
98	0x3d33af4c	0.043868348
99	0xbc9694f4	-0.018381573
100	0xbe88695a	-0.26642877
101	0x3e4bee55	0.19915135
102	0xbe551fd0	-0.20812917
103	0xbe455294	-0.19269782
104	0xbd5f8942	-0.05457426
105	0xbe0ec10a	-0.13940826
106	0xbe009b39	-0.12559213
107	0xbee491d4	-0.44642508
108	0xbdaa114d	-0.08304081
109	0xbd1974b3	-0.03746481
110	0x3d372318	0.044711202
111	0x3db7925c	0.08963463
112	0x3cc85a2c	0.02445706
113	0xbe39260f	-0.18080924
114	0xbec45b8d	-0.38351098
115	0xbe3278bb	-0.17428868
116	0xbd74909c	-0.059708223
117	0x3ea838a8	0.32855725
118	0x3dc08d0b	0.09401902
119	0x3d7b7e5e	0.06139981
120	0x3e44be51	0.19213225
121	0xbeb1b31c	-0.34706962
122	0xbe3f7431	-0.18696667
123	0xbd7fdaa8	-0.062464386
124	0x3e5e0bbd	0.21684165
125	0x3aa79cc0	0.0012787804
126	0x3ca93f4f	0.02066007
127	0x3de43fb3	0.11144962
128	0xbe0a55be	-0.1350927
129	0xbd2f08f4	-0.042733148
130	0xbebc4d21	-0.36777595
131	0xbe8cae03	-0.2747651
132	0xbe94d62d	-0.29069653
133	0xbe9aaad2	-0.3020845
134	0x3ba5b03c	0.005056409
135	0xbf35317a	-0.7077862
136	0x3f247105	0.64234954
137	0x3efd4fbd	0.49474898
138	0x3e8f789c	0.28021705
139	0x3e837464	0.25674736
140	0x3d0f9e4b	0.03506307
141	0xbd743798	-0.05962333
142	0x3dfd1937	0.12358325
143	0xbd261cf6	-0.040554963
144	0x3d5efc28	0.054439694
145	0xbd305b65	-0.04305591
146	0xbdc08555	-0.09400431
147	0x3d40fb03	0.047114383
148	0xbe5e3055	-0.21698125
149	0x3d3f0c06	0.046642326
150	0xbf10a845	-0.5650676
151	0xbdc1ed11	-0.09469045
152	0x3c89e819	0.016834306
153	0x3d9822de	0.074285254
154	0x3e32eda4	0.17473465
155	0x3d2025c9	0.039098535
156	0xbef61b39	-0.48067644
157	0xbdd7c0cd	-0.10534821
158	0xbe831d16	-0.25608128
159	0xbd5a5ea0	-0.053312898
160	0x3f7cfade	0.9882029
161	0x3e6d42d5	0.23170026
162	0x3ea210bd	0.31653395
163	0xbd8545f8	-0.06507486
164	0x3dc03ed1	0.09386981
165	0x3eb169d6	0.3465106
166	0xbe22ea3f	-0.1590967
167	0x3e986c7e	0.29770273
168	0x3e89dc3e	0.26925844
169	0x3e404b25	0.18778665
170	0xbe09082a	-0.1338202
171	0xbdc826ea	-0.09773047
172	0x3db92283	0.09039786
173	0x3e2e4828	0.17019713
174	0xbe81f913	-0.2538534
175	0xbe614ff6	-0.22003159
176	0x3e12ac74	0.14323598
177	0xbe6c6fde	-0.23089549
178	0x3df1008c	0.117676824
179	0xbc2e53aa	-0.010640064
180	0x3db3d236	0.08780329
181	0xbeb32834	-0.3499161
182	0xbddaad56	-0.106775925
183	0xbe9c6aba	-0.30550176
184	0xbe334649	-0.1750728
185	0xbf10c307	-0.5654759
186	0x3f01fff0	0.50781155
187	0xbd6c5b4c	-0.057704255
188	0xbed29790	-0.41131258
189	0xbd24d438	-0.04024145
190	0xbd2cadee	-0.04215806
191	0x3d9ddda5	0.07708291
192	0x3c1788bf	0.009248911
193	0x3dd7c750	0.10536063
194	0xbdf7579e	-0.120772585
195	0xbdcd727f	-0.10031604
196	0xbf7411c2	-0.95339596
197	0xbf08faa6	-0.5350746
198	0xbf1e821f	-0.619173
199	0x3ee7ae2c	0.4525007
200	0xbefb0d76	-0.49033707
201	0x3f92c419	1.1466094
202	0x3da46881	0.08027745
203	0xbeb5a2b8	-0.35475707
204	0xbf280ace	-0.65641487
205	0xbe902b31	-0.28157952
206	0xbe9c0c72	-0.30478245
207	0xbee07fe8	-0.43847585
208	0xbed16915	-0.40900484
209	0xbf124756	-0.571401
210	0x3e67bbc9	0.22630228
211	0x3ebc3a28	0.3676312
212	0x3e0d7730	0.13814998
213	0x3d1eca6b	0.03876726
214	0xbe01d3d5	-0.12678464
215	0xbf13da5f	-0.5775508
216	0xbf129a2f	-0.57266515
217	0xbf6d9750	-0.9280901
218	0xbf5d7308	-0.8650365
219	0xbee6becf	-0.4506745
220	0x3f887cad	1.0663048
221	0x3f7501b4	0.95705724
222	0xbeb49235	-0.35267797
223	0xbe305833	-0.17221145
224	0xbeb45c16	-0.35226506
225	0xbed68073	-0.41894874
226	0xbe05efc6	-0.13079748
227	0x3d799159	0.06092963
228	0xbe5e179f	-0.21688698
229	0x3fabb784	1.341538
230	0x3f07c4d1	0.53034693
231	0x3fb55a35	1.4168154
232	0xbe408555	-0.18800862
233	0x3f778813	0.9669201
234	0xbf4ffe28	-0.81247187
235	0xbe122948	-0.1427356
236	0xbedddd14	-0.43332732
237	0x3ec267d5	0.37969843
238	0xbcf25763	-0.029582685
239	0xbdd2817b	-0.10278603
240	0x3e0bd524	0.13655525
241	0xbddb178a	-0.10697849
242	0x3d87d26b	0.06631931
243	0x3e8bd3d7	0.27310058
244	0x3d0f407e	0.034973614
245	0x3f9bd640	1.2174759
246	0x3e418503	0.18898396
247	0x3dbbda8f	0.09172546
248	0xbe1f960d	-0.15584584
249	0xbe97407d	-0.29541388
250	0x3c2491da	0.010044539
251	0xbe8f13be	-0.2794475
252	0x3f153ce1	0.5829602
253	0x3de69021	0.11257959
254	0xbea89f69	-0.3293412
255	0xbe9d1bee	-0.3068537

fc1.bias f4 [64]
0	0x3dc1fbc1	0.09471846
1	0xbe6811ba	-0.22663012
2	0x3e783062	0.24237207
3	0x3df39112	0.11892904
4	0xbf811627	-1.0084885
5	0x3d4f5ec7	0.050627496
6	0xbddd9500	-0.10819435
7	0x3e27f21a	0.16400948
8	0x3b225da8	0.0024775062
9	0x3e0a8e70	0.13530898
10	0x3a183a02	0.00058069837
11	0x3c74e0f9	0.014946216
12	0x3c423ad2	0.011854844
13	0xbe9e9680	-0.30974197
14	0xbe0d5654	-0.13802463
15	0x3dd14c51	0.10219634
16	0xbe8365e4	-0.25663674
17	0xbdd1cdd8	-0.1024434
18	0x3e49fd96	0.19725642
19	0x3d621108	0.055192024
20	0xbf09ff36	-0.53905046
21	0x3e0ff7b4	0.14059335
22	0x3e59b56e	0.21260616
23	0xbda82b32	-0.08211364
24	0x3eafb757	0.34319565
25	0xbd37acb5	-0.04484244
26	0x3d65e508	0.056126624
27	0xbdcc7f49	-0.09985215
28	0x3c3a2363	0.011360976
29	0xbcb183b7	-0.021669252
30	0xbece7b1d	-0.40328303
31	0xba4520df	-0.0007519852
32	0x3bfc90bf	0.0077076848
33	0x3db6f80f	0.08934032
34	0xbe9e29d0	-0.30891275
35	0xbe028f0a	-0.12749878
36	0xbe5a8a4a	-0.21341816
37	0x3f131c6e	0.57465255
38	0xbe64a053	-0.22326784
39	0x3e1af4ce	0.15132448
40	0xbb9ae519	-0.0047270176
41	0x3dde083e	0.10841416
42	0xbdba6720	-0.09101701
43	0xbe348259	-0.17627849
44	0x3bd0be88	0.0063703693
45	0x3df30b82	0.11867429
46	0xbe4a710f	-0.19769691
47	0x3ea6f2cd	0.32607117
48	0xbc87f6d1	-0.016597183
49	0xbaeca76f	-0.001805527
50	0xbd23e3b7	-0.040012088
51	0xbe19fb80	-0.15037346
52	0x3dafa7cf	0.08576929
53	0x3cd6ae70	0.026206225
54	0x3eb683b4	0.35647357
55	0x3d2205a0	0.039556146
56	0x3e80efc4	0.25182927
57	0xbe968aba	-0.29402715
58	0x3e51ae36	0.20476612
59	0xbab4a82c	-0.0013783029
60	0xbd86c8d5	-0.065812744
61	0xbdb440b4	-0.08801404
62	0x3debb89d	0.115098216
63	0x3c4a61fb	0.012352462

fc2.weight f4 [64, 64]
0	0x3bab3eba	0.0052259834
1	0xbddbb429	-0.10727722
2	0xbd62fa8f	-0.055414733
3	0x3d1cb2f9	0.03825662
4	0xbc99c13a	-0.018768895
5	0xbc0b7265	-0.0085111605
6	0xbe0b30d8	-0.13592851
7	0xbe939574	-0.2882496
8	0x3de9469b	0.1139042
9	0xbe162043	-0.14660744
10	0xbe5dff8d	-0.21679516
11	0xbdc620f1	-0.09674252
12	0x3e376953	0.17911272
13	0x3e1ff45f	0.15620564
14	0xbd7305bb	-0.059331637
15	0xbde77af9	-0.11302752
16	0xbe0ebb57	-0.13938652
17	0x3de30f98	0.11086959
18	0x3e6c3bd3	0.23069696
19	0x3db1b373	0.08676805
20	0x3e6fdd82	0.23424342
21	0xbdf155e7	-0.11783963
22	0x3e88fa29	0.26753357
23	0xbe2c92be	-0.16852853
24	0x3cc5f04c	0.024162434
25	0xbcf9d8ca	-0.03049888
26	0x3cc4098d	0.023930335
27	0x3e2708fd	0.16312023
28	0x3df3cc7a	0.11904235
29	0x3deccb75	0.11562244
30	0x3e736de3	0.23772387
31	0x3ce2abea	0.027669866
32	0xbdbd6281	-0.09247304
33	0x3e4394fa	0.19099799
34	0xbe11cd11	-0.14238383
35	0xbbc9cd27	-0.0061584893
36	0xbc71ef80	-0.014766574
37	0x3ed1821b	0.40919575
38	0xbea1c2ac	-0.31593835
39	0xbd28a664	-0.041174307
40	0xbda75899	-0.081711955
41	0xbd73ba33	-0.059503745
42	0xbdcc776b	-0.09983715
43	0xbe0ec00f	-0.13940452
44	0x3db7c34f	0.08972799
45	0x3d7f08ac	0.06226413
46	0xbd621d86	-0.055203937
47	0xbe58c750	-0.21169782
48	0xbd90f850	-0.07078612
49	0x3d82d011	0.06387342
50	0xbdf099ae	-0.11748062
51	0x3e2fa099	0.17151107
52	0x3e069e6d	0.13146372
53	0x3d24a367	0.040194895
54	0xbe2c18e6	-0.16806373
55	0x3df814a6	0.121133134
56	0xbd99a737	-0.07502597
57	0xbe12bdf5	-0.14330275
58	0x3ddc8e77	0.107693605
59	0xbda89583	-0.08231642
60	0x3e15eb55	0.14640553
61	0x3c8d5950	0.017254502
62	0xbcaa24ae	-0.020769443
63	0x3d305858	0.043053
64	0xbc31da14	-0.0108552165
65	0x3df6a9d5	0.12044112
66	0xbca20822	-0.019779269
67	0x3c68c0e9	0.01420615
68	0xbdc67310	-0.09689915
69	0x3d35e560	0.044408202
70	0x3db13098	0.08651847
71	0xbd6270a4	-0.055283204
72	0x3c460475	0.012086024
73	0x38a0f82a	7.675619e-05
74	0xbcb1a997	-0.021687312
75	0x3dbaed98	0.09127349
76	0x3d7e9a7c	0.062159047
77	0x3dc9622f	0.0983318
78	0x3d09ceab	0.03364436
79	0x3da6eec7	0.08151012
80	0xbdc06985	-0.09395126
81	0xbc6f358d	-0.01460017
82	0xbd38ac9e	-0.045086496
83	0xbd3e0585	-0.046391983
84	0x3cdfa8cf	0.027302174
85	0xbd68e0a1	-0.056854848
86	0xbd605823	-0.054771554
87	0xbd33a21f	-0.043855783
88	0xbdaf07ed	-0.085464336
89	0xba989209	-0.0011640202
90	0x3d8aece8	0.067834675
91	0xbdb9adba	-0.09066339
92	0x3dc4287b	0.095780335
93	0xbe05c127	-0.13061963
94	0x3d1568ca	0.036476888
95	0x3ca14275	0.01968501
96	0xbde69811	-0.11259473
97	0x3c8d5907	0.017254366
98	0xbdf6902b	-0.120392166
99	0xbd77dea9	-0.06051508
100	0xbd2b5c6e	-0.041836195
101	0x3cdf7715	0.027278462
102	0x3c985cc3	0.01859892
103	0xbdd6f4e8	-0.10495931
104	0xbdedf8ee	-0.11619745
105	0x3c11dce8	0.008902766
106	0xbd9b9f91	-0.07598794
107	0xbd0f0acd	-0.03492241
108	0x3daa0760	0.08302188
109	0x3df17d95	0.11791531
110	0xbd827618	-0.06370181
111	0xbc23aaad	-0.009989423
112	0x3be43af9	0.006965038
113	0xbc67dce2	-0.014151784
114	0xbdb6b449	-0.089211054
115	0xbc2073ba	-0.009793216
116	0x3c27c3f8	0.010239594
117	0xbc1d11e1	-0.009586782
118	0xbdbf4d31	-0.09340895
119	0xbdbc21d4	-0.0918614
120	0x3dc97d92	0.09838404
121	0x3dcd0e11	0.100124486
122	0x3cf5e2c2	0.030015353
123	0x3cf1fa30	0.029538244
124	0xbd8f8243	-0.07007267
125	0x3c4a4ddb	0.012347664
126	0xbd78b735	-0.060721595
127	0xbda16128	-0.07879859
128	0xbd865d04	-0.0656071
129	0x3e04a3c2	0.12953094
130	0x3de7e7c4	0.11323503
131	0x3d961ca3	0.07329681
132	0xbdefcfbf	-0.11709546
133	0x3db2e627	0.08735304
134	0xbc9c77bb	-0.01910006
135	0x3e3e3a16	0.18576846
136	0xbdf172c5	-0.11789469
137	0xbdaf9e3e	-0.08575104
138	0xbdfebf34	-0.12438813
139	0xbe8bb43c	-0.27285945
140	0x3c8886f1	0.016665908
141	0x3d5a2ba8	0.05326429
142	0xbab14f67	-0.0013527692
143	0x3ced22ba	0.028947223
144	0xbe252046	-0.16125593
145	0xbd2cb87e	-0.042168133
146	0x3d9caf87	0.07650667
147	0xbdf9ae53	-0.12191453
148	0xbc53772b	-0.01290683
149	0xbd5f080d	-0.054451037
150	0xbe202e4d	-0.15642662
151	0xbd219827	-0.039451744
152	0x3bde4e4f	0.0067842375
153	0xbe0c9ba1	-0.13731243
154	0xbb3a3351	-0.0028411935
155	0x3e120938	0.14261329
156	0xbc2dc2ac	-0.010605495
157	0xbe2fde93	-0.17174749
158	0x3e3a3d92	0.1818755
159	0xbd8b405d	-0.06799386
160	0x3e10d148	0.14142334
161	0xbd1e8ffd	-0.038711537
162	0x3d7077e0	0.05870807
163	0xbcd6c0b7	-0.02621494
164	0xbcbf9f30	-0.023391336
165	0xbe8bb446	-0.27285975
166	0xbebfbbab	-0.37447867
167	0xbaafdd26	-0.0013417348
168	0x3c0ccdfd	0.008594033
169	0xbd527395	-0.05137976
170	0xbbac2c27	-0.005254287
171	0x3d45fba1	0.048335675
172	0xbdc6b722	-0.097028986
173	0xbdc581ba	-0.09643884
174	0xbb366e0f	-0.0027836596
175	0x3dcc5dc4	0.09978822
176	0x3cc0b894	0.023525514
177	0xbdc30a88	-0.09523493
178	0xbcca88c8	-0.024723426
179	0x3c094831	0.008379028
180	0xbdfa02ed	-0.12207589
181	0x3c98e9a2	0.018666092
182	0x3e5c45e7	0.2151104
183	0x3c947976	0.018124323
184	0xbd656826	-0.056007527
185	0x3d2dbfcd	0.042419244
186	0xbe951dc5	-0.29124275
187	0x3ce508f2	0.027958367
188	0xba6fc941	-0.00091471156
189	0x3d2f6ccb	0.042828362
190	0xbd921bc1	-0.071342
191	0xbd41f5e3	-0.047353636
192	0x3eaadfb3	0.33373794
193	0xbd24a858	-0.040199608
194	0x3e899739	0.26873186
195	0x3eaf8ed6	0.34288663
196	0x3eca3c58	0.39499164
197	0x3e9cc49a	0.30618745
198	0x3e218e5a	0.15776959
199	0x3e94c319	0.29055098
200	0x3e2aebbe	0.16691491
201	0x3ef5305b	0.47888455
202	0xbce1ad8f	-0.02754858
203	0xbecd4556	-0.40091962
204	0x3ef7082c	0.48248422
205	0xbc4bac06	-0.01243115
206	0x3e2be362	0.16785958
207	0x3dde5b3f	0.108572476
208	0xbedce229	-0.43141297
209	0xbdb0f4f9	-0.08640475
210	0x3ed3c5ea	0.41361934
211	0xbe33b05c	-0.17547745
212	0xbc98ae0c	-0.01863768
213	0x3c859179	0.016304718
214	0x3e657c22	0.22410634
215	0x3dca1b22	0.098684564
216	0x3d9eaaee	0.07747446
217	0xbd101088	-0.035172015
218	0xbdaf24a3	-0.0855191
219	0x3d030fb2	0.03199739
220	0xbdbc6e26	-0.09200697
221	0xbe9cdebe	-0.3063869
222	0x3cf809b0	0.030278057
223	0x3edc49d6	0.43025082
224	0x3eed3c44	0.46335042
225	0xbdd43c42	-0.10363056
226	0xbea5ae35	-0.32359472
227	0x3d9ea20c	0.07745752
228	0xbea9f973	-0.33198127
229	0xbd04535c	-0.03230606
230	0x3ea5bfb3	0.32372817
231	0x3e34ff0f	0.17675422
232	0xbe9164fa	-0.28397352
233	0x3eb2404e	0.34814686
234	0x3cb57175	0.022148827
235	0x3eb7fe84	0.35936368
236	0xbce2910a	-0.02765705
237	0xbde73dd9	-0.112910934
238	0xbeab664b	-0.3347648
239	0x3f0f2b28	0.55925226
240	0x3d5e9de4	0.054349795
241	0x3e164671	0.14675309
242	0xbcbb7544	-0.022883065
243	0x3e149f3d	0.1451387
244	0x3d863a82	0.06554128
245	0x3e2e4e02	0.17021945
246	0xbd037626	-0.032095097
247	0x3ecdeb4a	0.40218574
248	0x3e979ca4	0.29611695
249	0xbddedaa9	-0.1088155
250	0xbdf730e9	-0.12069876
251	0x3eba817f	0.36426923
252	0x3e1cad1d	0.15300412
253	0xbd39ac5f	-0.0453304
254	0xbcf8cc3c	-0.030370824
255	0x3d3f8ea3	0.04676689

fc2.bias f4 [64]
0	0xbe264e5d	-0.1624083
1	0xbcb172c4	-0.02166117
2	0xbd8bca56	-0.06825702
3	0x3ed64065	0.41846004
4	0xbdf4a69b	-0.1194584
5	0xbc337f8c	-0.0109557025
6	0xbe4206e5	-0.18947943
7	0x3d940c27	0.072288804
8	0xbd661738	-0.056174487
9	0x3d8fa357	0.070135765
10	0x3d2fb53d	0.04289745
11	0x3eb290c1	0.34876063
12	0x3c81d4f5	0.015848616
13	0x3cde3380	0.027124166
14	0x3e9d3ffb	0.30712876
15	0x3ea0b3e1	0.31387237
16	0xbc982335	-0.018571476
17	0x3ea5ca1e	0.32380766
18	0x3cbb6061	0.022873105
19	0xbda25515	-0.07926384
20	0xbdd13e39	-0.10216946
21	0xbc81eda8	-0.015860394
22	0xbbe6f0ef	-0.0070477645
23	0x3dc46082	0.0958872
24	0xbdf911ca	-0.12161596
25	0x3cfb03f9	0.030641543
26	0x3e5172c6	0.20453939
27	0xbd075d26	-0.033047818
28	0x3e3d1b46	0.18467435
29	0xbe0a1a1a	-0.1348652
30	0x3e5344d4	0.20631725
31	0x3ce2472a	0.027621824
32	0x3eca95f7	0.3956754
33	0xbd9d5cd2	-0.0768372
34	0x3e29b974	0.16574651
35	0xbda940e2	-0.082643285
36	0x3e7ddcfc	0.2479133
37	0x3e7bf874	0.24606496
38	0x3ec14d57	0.37754318
39	0x3edb3773	0.42815742
40	0x3de4ca73	0.111714266
41	0x3de58f8d	0.11209021
42	0x3de12566	0.10993461
43	0x3ca1370f	0.019679574
44	0xb927eaf3	-0.00016013886
45	0x3e70cb8c	0.23515147
46	0x3cb5848e	0.022157934
47	0x3cccb741	0.024989726
48	0x3d3e79b9	0.046502803
49	0x3ea2bbc2	0.31783873
50	0xbca7c2cb	-0.020478627
51	0xbcf15345	-0.029458651
52	0xbde02826	-0.10945158
53	0x3e65dac6	0.22446737
54	0xbe1140af	-0.14184831
55	0x3e73a8d9	0.23794879
56	0xbbdb5f3c	-0.0066947024
57	0x3e8042ac	0.25050867
58	0x3e9c13eb	0.30483946
59	0xbd1531c6	-0.03642442
60	0xbdcae5f5	-0.09907142
61	0xbd6afda0	-0.057370782
62	0xbde8661f	-0.11347603
63	0x3dbad865	0.09123305

fc3.weight f4 [7, 64]
0	0x3dc8f272	0.09811868
1	0x3c5a6efd	0.013332126
2	0x3ef4cba8	0.47811627
3	0x3eecc279	0.4624212
4	0xbca5d1f6	-0.020241719
5	0x3e2c9182	0.16852382
6	0x3f29026b	0.66019315
7	0x3eae609b	0.3405808
8	0xbcf97bdf	-0.030454574
9	0xbb705e81	-0.0036677422
10	0xbe83d162	-0.25745684
11	0x3f02d33a	0.51103556
12	0x3ee35c2e	0.44406265
13	0xbd72e7ab	-0.059302967
14	0xbebae49e	-0.36502546
15	0x3f159d70	0.58443356
16	0xbd475b93	-0.048671316
17	0x3f0da4ed	0.5532978
18	0x3f78892f	0.97084326
19	0x3faef8dd	1.3669697
20	0xbdcf6511	-0.10126699
21	0x3f3b2c12	0.7311412
22	0x3f3a5f8b	0.72802037
23	0x3f240e9d	0.640848
24	0x3f0e1952	0.55507386
25	0xbc888dc5	-0.016669163
26	0xbf4b692a	-0.7945734
27	0xbdd9d7ff	-0.10636901
28	0x3e0f15b7	0.13973127
29	0xbdbcf0d6	-0.09225623
30	0x3f37fd62	0.71871006
31	0x3e5dceba	0.21660891
32	0x3f7e30c5	0.99293166
33	0xbd0fb481	-0.03508425
34	0x3f1f3ff2	0.6220695
35	0xbc578d5a	-0.013156259
36	0x3dc2ecae	0.09517799
37	0xbe866d8b	-0.2625545
38	0xbe484e08	-0.19561017
39	0x3ca627ad	0.02028259
40	0x3e9269bf	0.28596303
41	0xbea09e2e	-0.31370682
42	0x3ddb5af3	0.107107066
43	0xbe9e8b22	-0.30965525
44	0xbdeb5814	-0.11491409
45	0x3f6f1e0c	0.9340522
46	0xbea1ef93	-0.31628093
47	0x3e92f8d3	0.28705463
48	0x3e464eef	0.19366048
49	0x3f43458a	0.76277983
50	0x3de8c265	0.11365203
51	0xbc4d2f9c	-0.012523558
52	0xbd2b4f09	-0.04182342
53	0x3e045b14	0.12925369
54	0xbdb77541	-0.08957911
55	0x3e50468e	0.20339414
56	0xbebef082	-0.37292868
57	0xbe69d7c2	-0.22836211
58	0x3f57e82c	0.8433864
59	0xbd6bb9b8	-0.057550162
60	0x3e811b2e	0.2521605
61	0x3e985d13	0.2975851
62	0x3df86220	0.12128091
63	0x3e09f905	0.134739
64	0x3f3d1941	0.7386666
65	0xbe0d9d64	-0.13829571
66	0xbd8f10a8	-0.06985599
67	0xbf4671e5	-0.7751754
68	0xbd09d862	-0.033653624
69	0xbd9ba50d	-0.0759984
70	0x3daab808	0.083358824
71	0xbe9cddbf	-0.3063793
72	0x3c7b9f2b	0.015357773
73	0xbe554a8c	-0.20829219
74	0xbf5d1406	-0.8635868
75	0x3e170d5c	0.1475119
76	0xbe17c663	-0.14821772
77	0x3f043835	0.51648265
78	0xbf21589d	-0.6302584
79	0xbf4a45dd	-0.7901285
80	0xbd704e17	-0.058668222
81	0xbf49b13d	-0.7878607
82	0xbd1e8fc0	-0.03871131
83	0x3d090f64	0.033461943
84	0xbdd0519f	-0.10171818
85	0x3ee6290e	0.44953197
86	0xbd552d94	-0.05204542
87	0xbe418620	-0.18898821
88	0xbec6f45d	-0.3885831
89	0x3e088c9a	0.13334885
90	0xbd9be547	-0.076120906
91	0x3d9b8f10	0.075956464
92	0x3ec15579	0.37760523
93	0xbdd781a2	-0.10522772
94	0x3e804a73	0.250568
95	0x3f67f877	0.906135
96	0x3f32f349	0.69902474
97	0x3e95f63e	0.2928943
98	0xbf365c6f	-0.7123479
99	0x3dd525e7	0.1040762
100	0x3f113ff2	0.567382
101	0x3e9a6ef0	0.30162764
102	0xbe7369d4	-0.23770839
103	0x3cd6767e	0.026179548
104	0x3efe1ddb	0.49632153
105	0xbf2ac7cc	-0.66711116
106	0x3ea18af2	0.3155132
107	0xbe069fb6	-0.13146862
108	0x3cf2f6ba	0.029658664
109	0x3db836ca	0.08994825
110	0xbf7637bf	-0.9617881
111	0x3f17986d	0.5921696
112	0xbdbcfb13	-0.09227576
113	0x3ee20e65	0.44151607
114	0x3d90b5a3	0.070658945
115	0xbde27353	-0.110571526
116	0xbdf7671a	-0.12080212
117	0xbeae2396	-0.34011525
118	0x3d0990a3	0.033585202
119	0x3f3b2c72	0.73114693
120	0x3ee1e9e9	0.44123772
121	0xbed05ba9	-0.4069493
122	0xbe206753	-0.15664415
123	0xbe0da48f	-0.13832305
124	0xbe0977c8	-0.13424599
125	0x3d7d9c15	0.06191643
126	0xbccb0fde	-0.02478784
127	0x3e2994f2	0.16560724
128	0xbe16a7c1	-0.1471243
129	0x3ced77e8	0.02898784
130	0xbd6c928d	-0.05775695
131	0xbf566a4e	-0.8375596
132	0xbdec4cbb	-0.11538073
133	0xbdac2eae	-0.08407341
134	0xbd907274	-0.0705308
135	0x3e7434cc	0.23848265
136	0x3daba286	0.08380608
137	0x3d7ff80d	0.06249242
138	0x3f2a46b5	0.6651414
139	0xbf1ff562	-0.624838
140	0x3f4c8de1	0.7990399
141	0xbe71b2f1	-0.23603417
142	0xbf1c59b5	-0.6107438
143	0x3f311bf8	0.691833
144	0xbdf839b3	-0.1212038
145	0xbe6c5805	-0.23080452
146	0xbe3cb5c7	-0.18428718
147	0xbe8e5aad	-0.27803555
148	0x3d43f13c	0.04783748
149	0xbe208978	-0.1567744
150	0x3ece93cf	0.40347144
151	0x3d253607	0.040334728
152	0xbcd714b1	-0.026254984
153	0xbefb3023	-0.49060163
154	0xbcf80da7	-0.030279947
155	0xbde451df	-0.11148428
156	0xbe51428c	-0.20435542
157	0x3dd1af09	0.102384634
158	0xbf3c8fe0	-0.73657036
159	0x3c9297fd	0.01789474
160	0xbf37773d	-0.7166632
161	0xbe14572f	-0.14486383
162	0xbeb94edc	-0.36192977
163	0xbcbe4602	-0.023226742
164	0xbe022ab2	-0.127116
165	0xbe90c027	-0.282716
166	0x3e5df046	0.21673688
167	0xbf4e5918	-0.80604696
168	0xbe92fe4e	-0.28709644
169	0x3e8bf5df	0.27336022
170	0xbecfba4f	-0.4057183
171	0xbe10030d	-0.14063664
172	0xbe1180da	-0.14209309
173	0xbea5db73	-0.3239399
174	0x3f91c24f	1.1387423
175	0xbe23bb54	-0.15989429
176	0x3e061ecd	0.13097687
177	0xbe49dcad	-0.19713087
178	0x3d743ecf	0.05963021
179	0x3a61dbe4	0.0008615835
180	0x3dc9f30f	0.09860813
181	0xbe7bca0f	-0.24588798
182	0x3d82d9e6	0.06389217
183	0xbe8dd1c4	-0.276991
184	0xbe743f1e	-0.23852202
185	0x3e4ad128	0.1980635
186	0xbf982e44	-1.1889119
187	0xbe868750	-0.2627511
188	0xbd75d495	-0.060017187
189	0xbd91334e	-0.07089864
190	0x3d554543	0.052068006
191	0xbeafbc15	-0.34323183
192	0xbef3322d	-0.4749922
193	0xbdd47b96	-0.10375135
194	0xbe86e193	-0.26343974
195	0x3faba7d1	1.3410589
196	0x3d653e25	0.05596747
197	0x3cfead63	0.031088537
198	0xbed7adbe	-0.42124742
199	0x3e0ba660	0.13637686
200	0x3d00e5fb	0.031469326
201	0x3dab9961	0.08378864
202	0x3ee106f3	0.43950614
203	0x3f1d473a	0.6143681
204	0xbf86b858	-1.0525007
205	0x3e926fc2	0.2860089
206	0x3f350379	0.70708424
207	0xbf9b0711	-1.2111531
208	0xbd77182c	-0.060325786
209	0x3fa9af1e	1.3256567
210	0xbe91ab2d	-0.2845091
211	0xbe660905	-0.22464378
212	0x3ddbce7f	0.107327454
213	0xbec70926	-0.38874167
214	0xbf00c718	-0.5030379
215	0xbec98936	-0.39362496
216	0xbe791616	-0.24324831
217	0xbe1c864e	-0.15285608
218	0x3eba937f	0.36440656
219	0x3cbd1cf9	0.023085104
220	0xbead196b	-0.33808455
221	0x3e1243f0	0.14283729
222	0xbeea7cc4	-0.45798314
223	0xbf85ddcc	-1.0458312
224	0xbfa0cb03	-1.2561954
225	0xbe77ad69	-0.24187244
226	0x3c249388	0.01004494
227	0xbc419335	-0.011814882
228	0xbf65a8a2	-0.8971044
229	0xbe5f00e4	-0.21777683
230	0xbf4a238d	-0.78960496
231	0x3e3cd76e	0.18441555
232	0xbc35e6c8	-0.011102386
233	0x3f4d84d0	0.8028078
234	0xbd1231fe	-0.035692208
235	0x3cf66e64	0.030081935
236	0x3dce290b	0.10066422
237	0xbf448413	-0.7676403
238	0xbd8aed44	-0.06783536
239	0xbe411cd7	-0.18858658
240	0xbd6114fd	-0.054951657
241	0xbf1b3217	-0.60623306
242	0xbcc84d0a	-0.024450798
243	0xbd16f3a8	-0.036853462
244	0xbdbdea18	-0.092731655
245	0x3e6284a5	0.22120912
246	0xbd9db7c7	-0.07701068
247	0xbf6f2966	-0.93422544
248	0xbe231e25	-0.15929468
249	0x3f0f6b40	0.56023026
250	0x3d3e9065	0.046524424
251	0x3e10bda7	0.14134847
252	0xbd15eb09	-0.0366011
253	0xbd96fa74	-0.07371989
254	0x3db755e6	0.08951931
255	0x3eaa6705	0.33281723

fc3.bias f4 [7]
0	0x3f6276c9	0.884625
1	0xbf39118d	-0.72292405
2	0xbe8b88b2	-0.27252728
3	0x3e1a9fc5	0.1510001
4	0xbf21c023	-0.631838
5	0x3efc83b0	0.4931922
6	0xbd88aee4	-0.06673983
